onnx_inference/data/actor_feet_air.onnx (onnx, 345977 bytes, 8 tensors)

actor.latent_pi.0.weight f4 [256, 53]
00000000: 7fc8 62bf 0ed2 ba3e 3c86 d4bc 4829 893e
00000010: e479 e2be 6fe5 1a3f cff1 a43e 0545 6e3d
00000020: dde8 af3e 3442 2ebd edc6 4e3f 341a 94bd
00000030: 41b5 653e 372f 353f 6661 eb3e 9e10 d93e
00000040: 7d5a 18bc 5f12 4d3e 2821 1ebe 1552 a13d
00000050: 009f 1c3d 5f7e 7cbd 74c5 a4bd f8c3 c33d
00000060: 6596 b1bd 8acd 843d 84f2 a03d be91 bbbc
00000070: a331 8cbd 0fa8 dc3d 1f7f 2f3b 109b a4bb
00000080: 4059 8d3e 05a0 4abe 0298 90be 40c0 c73e
00000090: e107 2a3e b0b6 523e f50e 9b3e 0412 4a3e
000000a0: dbec a73e eb15 973e c5eb 9cbe d298 f33e
000000b0: fd28 853f 3ce0 c93d 52c5 13bf 8f56 c93c
000000c0: 7fdc 8e3d 15aa 4b3e 03de 28be ea29 3abe
000000d0: fbe5 c33d f4af 47be 875a 273d 0f15 a9bf
000000e0: 712c 353e 1660 6c3f fbde 0b3e 6c54 9d3e
000000f0: 0f78 afbd a075 d03d d223 0b3f f977 89be
00000100: f2c9 313e aa0a 6e3e c22b d6bd 9059 58bd
00000110: d764 acbd ab91 52be c6b4 1a3f cdea f4be
00000120: b939 a338 45ce 2bbd d91d 823b 4878 aabc
00000130: c6c9 513e b0d7 013e b0e6 0d3b 7000 99bc
00000140: 631c 243c dadc 91bd c06c 3bbd f089 9a3c
00000150: 0ad1 1ebd de9b 803e ebfe dc3e fcab e13d
00000160: 51ff 8fbd 9c4e a4be e233 093e 015d 7abd
00000170: 0d11 013e 349a d13e a257 11be 3a0a 013f
00000180: 3479 e33e 191b 80be 0800 333e 7bae aabf
00000190: b319 a1bd f88b 0c3d a487 b3bd 3310 a6bd
000001a0: 1a68 c0bd b91f e7bd 44db d0be 3f96 3bc0
000001b0: 54ac d93e 6abb b43e 1100 b7be b4b1 11bf
000001c0: 21df 2cbe 560e fdbd 44b5 34bf 728e 5dbd
000001d0: 6f99 22bf bd22 a2bf a2ed 2cbf d69c 4abd
000001e0: 71c2 a1bf fa93 3dbf 2fa3 d3bd 2c06 c7bd
000001f0: 9939 dd3c 25b3 41bc 180b 743d 9592 f13c
00000200: f52e 71bb 24da 3c3c c126 f5bb 526a 5bbc
00000210: 5bdd 493c 7378 dbbc 5f39 81bc 62c6 503c
00000220: 525d 063c e5c5 b7bd 18c4 363e 10aa ce3d
00000230: 7385 bf3d b2f0 9cbc 013a 48bc e2ed a1bd
00000240: e528 153e 9707 4abd c154 29bc 4012 0b3d
00000250: 3d75 813c 9fd5 08c0 0ace 0e3f c16c d03e
00000260: 8624 913e a28f d2bd 6c1e 003e 0aac 3dbd
00000270: 2c0f ae3a 83b1 e03c 3f61 07bd 3133 c43f
00000280: 007a ab3d 4f5d 653f 3af9 e23d c2fa f7bc
00000290: 2995 b23e 383e ce3c b232 af3e c308 b23e
000002a0: eed8 a93e c710 e03e 55c3 18be 7069 943d
000002b0: de27 e93e 0d5c 753e 27fc 0abc 6b9b 7d3e
000002c0: d3d4 6b3e 0261 4f3d 6c99 83bd aa0a b7bd
000002d0: d778 203d 6940 213e 2a62 f13a c63e 95bb
000002e0: b2b1 6fbc 8457 e4bc 33cb 953b b237 073e
000002f0: 53cf 07bb 7d6a ab3a e4f7 a2be 7374 f13d
00000300: 83d3 63be 065c 823c 54c5 44be 0d11 083f
00000310: 7ca1 14bd ef66 5ebd c758 f2be 55ca 9abe
00000320: acea a4be ccaf 913c 2184 2a3f cd4c b9bf
00000330: f122 813d 6162 35bf 0e1c acbd fdfd fbbd
00000340: dfe3 973e e50e 46bd 0c56 11be 0808 d23d
00000350: 73cf c7bf 4f75 7abf 3911 4fbd 259c 31be
00000360: 637b 19bf b982 eebe 0e28 89bc 9177 5fbe
00000370: 4fe3 f6be 3731 a6be 798d d1be 0a55 a33b
00000380: c287 c53d 79f2 eb3d 04d8 a33e f048 813e
00000390: 7c28 dcbe 4100 3ebf 9f4b 0bbe 27d3 59bd
000003a0: c784 cbbd 109c 493d 8d40 92bc 8c2d 89bd
000003b0: 89e9 9fbd e3f0 503c 1b25 5dbd 13de 47bd
000003c0: 6e01 bfbd aa73 423d a1fa 9dbc 0a16 53bc
000003d0: eedd 2ebe f509 25bd 2055 de3d 01ae 86be
000003e0: bd77 563c 2bbb 833e 38da 213e 2848 17bf
000003f0: f5ba e03e 42af 603e 85f1 f53d ea45 79bf
-0.8858718 0.36488384 -0.025942914 0.26789308 -0.4423362 0.6050634 0.32215735 0.05817129
0.34357348 -0.042543605 0.80772287 -0.0723156 0.22432424 0.7077517 0.45972747 0.4239549
-0.009298918 0.2002654 -0.15442336 0.07876984 0.03823757 -0.061643954 -0.08045474 0.095588624
-0.086712636 0.06484516 0.07858756 -0.022896644 -0.06845405 0.10774242 0.002677865 -0.0050233677
0.27607155 -0.19787605 -0.28240973 0.39013863 0.16604568 0.20577502 0.3028485 0.19733435
0.32797894 0.2950891 -0.30648628 0.4757753 1.0403134 0.098572224 -0.5772296 0.024577407
0.0697565 0.198891 -0.16490941 -0.18180051 0.0956535 -0.19500715 0.040857818 -1.3209552
0.17692734 0.92334116 0.13659279 0.3072847 -0.08567821 0.10178685 0.5435153 -0.26849344
0.17362192 0.23246256 -0.10457565 -0.05281979 -0.08417671 -0.2056338 0.6043209 -0.4783539
7.783197e-05 -0.04194476 0.0039708433 -0.020809308 0.20487127 0.12679935 0.0021652393 -0.018676966
0.010016534 -0.07122202 -0.04575801 0.018864602 -0.038773574 0.25118917 0.43163237 0.110191315
-0.070311196 -0.32091224 0.13398698 -0.06112385 0.1260416 0.4093796 -0.14193586 0.5040623
0.44428408 -0.25020674 0.1748048 -1.3334497 -0.0786623 0.034313172 -0.08766106 -0.081085585
-0.09394856 -0.112853475 -0.40792286 -2.9310453 0.42514288 0.35299236 -0.35742238 -0.5691178
-0.16881992 -0.1235625 -0.7058909 -0.054090925 -0.6351537 -1.2666851 -0.675501 -0.049465977
-1.2637464 -0.7405392 -0.10333859 -0.09717974 0.027005004 -0.011822497 0.059580892 0.029488841
-0.003680167 0.011526618 -0.0074814265 -0.013392048 0.012320842 -0.026790833 -0.015774427 0.012742611
0.00820096 -0.08973292 0.17848241 0.100910306 0.09351625 -0.019157741 -0.01222086 -0.07906701
0.14566381 -0.049323644 -0.010335148 0.03395295 0.015802974 -2.1380384 0.5578314 0.40707973
0.28348178 -0.10281302 0.12511605 -0.046306647 0.0013279668 0.027428394 -0.033051725 1.5328122
0.08372879 0.895955 0.110826924 -0.030270938 0.34879425 0.025176153 0.34218365 0.3477231
0.33173317 0.437628 -0.14918263 0.07246673 0.4553823 0.23960896 -0.008482969 0.24766319
0.23030405 0.050629623 -0.06425747 -0.08937581 0.03917774 0.15747227 0.0018416096 -0.0045546023
-0.014629768 -0.027873762 0.0045713424 0.1320484 -0.002072294 0.0013078001 -0.3182975 0.11789789
-0.22248654 0.01591302 -0.192159 0.5315102 -0.036286816 -0.054297384 -0.47333357 -0.30232492
-0.3221029 0.017784022 0.6660786 -1.4476563 0.06305493 -0.7085324 -0.084037885 -0.12304304
0.2966604 -0.04835405 -0.1419298 0.10255438 -1.5610183 -0.9783525 -0.050553534 -0.1734472
-0.599539 -0.46584108 -0.016742732 -0.21822955 -0.48220298 -0.32459423 -0.40928248 0.0049845027
0.096450344 0.11520857 0.32000744 0.2525096 -0.42999637 -0.7421914 -0.13603066 -0.053179886
-0.09937435 0.0492211 -0.017853046 -0.066981405 -0.07808215 0.012752744 -0.053990465 -0.04879577
-0.093264446 0.047473587 -0.019284548 -0.0128836725 -0.17076847 -0.0402927 0.1085608 -0.2630463
0.013090071 0.25728735 0.158059 -0.59094477 0.43892637 0.21941856 0.12008957 -0.97372305

actor.latent_pi.0.bias f4 [256]
00000000: 32f5 253e fb74 913d 3469 f13e 9de3 dabd
00000010: 0c41 b6be 21f0 863e 33d6 10bf aac4 d23d
00000020: bc12 d6bd 30ba 113b dd1b 6a3d 033f d3be
00000030: 8c6d ee3c 0ddc 83be 843e 6d3d 822b 443f
00000040: 3ae4 fabd 4d9f e4bd 1a81 3cbf b528 81be
00000050: 339b 773d 8eb4 cdbe 6c80 0dbf 7bc2 babe
00000060: 3ef3 953d cf88 2fbf 2873 1a3e 7887 7e3d
00000070: 421d abbe 5fa5 133e 9bda e33e 4365 7ebe
00000080: 77c9 3bbe 246e ce3d 843a 24be a9ef 103f
00000090: 82d0 ea3e fda4 c4be 553e 923d 4785 b9be
000000a0: 9d73 903c b22a cf3d 8b9d b2be b610 d1be
000000b0: c919 8cbe 2482 66be 611e 94be da70 27bf
000000c0: c24f 703e 7567 0fbe 377f 42bd 4f09 97be
000000d0: 5f0f 03bf 4cd9 0bbe 5fac 39be 6be4 8f3d
000000e0: 9dce 17bf 974a a83e e501 613e 5a92 5a3e
000000f0: c8b6 a8be 6975 78be 4df5 b03c e34e 94be
00000100: a427 1dbe c27a d8bd 22a1 8cbe cfae 0bbe
00000110: de5b 17be 131b 0b3f f421 c43b 09e2 93be
00000120: d1e7 aabe 7d1d ba3e 1382 38be 93a8 a7bd
00000130: 5d43 01bf cb0b 68be 991f d8bd c544 f23c
00000140: bc87 1ebe c72a 6cbd 6dc1 9dbd 8ed9 b5be
00000150: 449c 1ebe da4a 873e d845 e83e fd18 1f3e
00000160: 17cd a0be 43ae 793e b893 f73d 246a 02bf
00000170: a088 fdbe f246 c9be 0c2e a23e 730f 81be
00000180: 1255 353d 876f ccbd fe5a d4be b740 e9bd
00000190: 865d a3be 3116 a6be c175 96bd 812e 113e
000001a0: 960f a43e 6e4a 423c 541e 78bd 10fc 6bbd
000001b0: 4718 663e 0255 d8bd 3d16 99be 8faa 863e
000001c0: 5529 a1be 3520 a93e 2888 5dbe 72ae 83bc
000001d0: 0817 46be e008 fabc 8047 3ebc aceb fc3d
000001e0: 86f3 6cbd 44f6 b4bc f0bc 52be 0c4e 32be
000001f0: c2d5 48be 7b1d 5fbc 57fc 9d3e 5dd6 44bd
00000200: 79cd cbbe 6ebb 203e 0e62 ccbd e980 bcbe
00000210: ac96 8dbe 404b b9bf 23cb cb3e 0179 0ebe
00000220: 7a4f 08bf d5b6 0ebe 6718 5cbe 1989 3abe
00000230: 5450 5a3f 8b52 7bbe 2f24 083d 6dd7 d43e
00000240: 013d 003e 68b7 733c 2e15 1c3e 3d77 87bc
00000250: f508 103f 5763 a0be d19a 5abe 82d5 143e
00000260: aa49 27be 3fb5 be3d d668 6f3d 37e6 a7be
00000270: 8429 13bf dd37 04bf 1545 4cbe 3135 4bbd
00000280: 678a 5abe 1e19 9cbe 267a 21bc 276b 83bf
00000290: 0998 263c 181d 84bd 4b22 f6bc 9fd0 8fbe
000002a0: b65d 473c 63d6 753d 9260 96b9 0243 91be
000002b0: 1e1a 49be 37e7 8bbe 8601 8fbe 92cf 843c
000002c0: 2e99 a9bc 9f52 d33d ecd5 a1be 84a0 5bbe
000002d0: f3fd 2cbe 6d71 543e f0cd bdbe d5a7 b0be
000002e0: 34c2 443e 4d59 02bf e76b b23e 48d4 5abd
000002f0: 3b05 93be 4440 14bc e471 58be ff92 f23e
00000300: 8cf4 43be e3d4 7cbe 3182 d8bd 3540 db3c
00000310: 257e a1be 42d8 1cbe eaeb 8dbd 2413 81be
00000320: 3e1c 1ebe 5441 89be 82ff 6abe a789 3cbe
00000330: a2af 9e3e 7e88 6ebe 6619 b2bd 238c 783e
00000340: a7a0 07be 68a5 f7bd 6f33 793d af62 93be
00000350: 4858 053e 50bf 463b 819c 87bc a649 a8be
00000360: b7eb abbe d6a2 27bd 70c0 66be 03f1 253e
00000370: 24b7 d13d 45b5 723e 77ee f4be 8daa 3d3f
00000380: 5ce3 56be 2117 60be c1d3 4d3e 8fa2 35be
00000390: 4f67 9f3e 2b59 f13e 2c07 d43d 511f 70be
000003a0: a490 673d 840d c6be 3156 e53d 3dbc 3b3f
000003b0: 0242 78bd 9936 1ebf e6f4 cabd 8a8a 813d
000003c0: ba3d 61be b50c 91bc e160 5b3e 78f5 53bd
000003d0: fa43 f1be 4b17 f93e 517b 11be b53a 2d3c
000003e0: 4ba6 8ebd b7ad a8bc c14d e23c 08c1 e9bc
000003f0: 13c4 1fbf 9970 8fbd fbf4 dcbd 0f6f 343f
0.16206816 0.071023904 0.47150576 -0.10687945 -0.35596502 0.2635508 -0.5657684 0.10291417
-0.10452792 0.002223622 0.05715548 -0.41259012 0.02910497 -0.25753823 0.057920948 0.7662889
-0.12250562 -0.11163197 -0.73634493 -0.2522637 0.060450744 -0.40176815 -0.5527408 -0.36476502
0.073217854 -0.6856813 0.15082991 0.06214091 -0.3342076 0.14418553 0.4450272 -0.24843316
-0.18338571 0.100796014 -0.16037947 0.5661569 0.45862204 -0.38407126 0.07140795 -0.36234495
0.017633254 0.10115565 -0.3488582 -0.40833062 -0.27363423 -0.22510582 -0.28929427 -0.6540657
0.23467925 -0.1400431 -0.047484603 -0.2949929 -0.5119533 -0.13657111 -0.1813216 0.07025989
-0.5929964 0.32869408 0.21973379 0.21344891 -0.3295195 -0.24263538 0.021601344 -0.28966436
-0.15347153 -0.10570289 -0.27466685 -0.13640903 -0.14781138 0.54338187 0.005985493 -0.2888339
-0.33379987 0.36350623 -0.1801837 -0.0818645 -0.50493413 -0.22660749 -0.10552902 0.029573807
-0.15481466 -0.057657983 -0.07702909 -0.35517544 -0.15489298 0.26424295 0.45365787 0.15536876
-0.3140647 0.24382882 0.12088722 -0.5094321 -0.495183 -0.3931194 0.31675756 -0.252071
0.044270582 -0.0998221 -0.41475672 -0.113892965 -0.3190729 -0.32438806 -0.073466785 0.14177896
0.3204314 0.011858566 -0.0605758 -0.057613432 0.22470199 -0.10563089 -0.2989978 0.26302
-0.31476846 0.33032385 -0.2163397 -0.016074393 -0.19344723 -0.03052181 -0.011613727 0.12349638
-0.05784943 -0.022090085 -0.20579886 -0.17412585 -0.19612792 -0.013617869 0.30856583 -0.048055995
-0.398052 0.15696499 -0.0997964 -0.368171 -0.27654016 -1.447609 0.3980342 -0.13913347
-0.5324627 -0.13936932 -0.21493684 -0.18216361 0.8527882 -0.24543206 0.033237632 0.41570607
0.12523271 0.01487527 0.15242454 -0.01653635 0.5626367 -0.3132579 -0.2134812 0.14534572
-0.16336694 0.09311914 0.05844959 -0.32792827 -0.5748522 -0.5164774 -0.19948228 -0.049611274
-0.21341859 -0.30487913 -0.009855783 -1.0267075 0.010168084 -0.06450862 -0.030045649 -0.28088853
0.0121683385 0.06001891 -0.0002868218 -0.28371435 -0.19638869 -0.2732484 -0.2793085 0.016212258
-0.020702925 0.10318493 -0.31608522 -0.2144795 -0.16893749 0.20746394 -0.3707118 -0.34503046
0.19214708 -0.5091751 0.34847948 -0.053425103 -0.28714928 -0.009048525 -0.21137196 0.47377774
-0.19136256 -0.24690585 -0.10571707 0.026764015 -0.31541553 -0.15316871 -0.06929763 -0.25209916
-0.15440461 -0.26807654 -0.22949031 -0.18411885 0.30993372 -0.23294255 -0.086962506 0.24272208
-0.13244878 -0.120920956 0.060840067 -0.28786227 0.13021958 0.0030326433 -0.016554119 -0.3286869
-0.33578274 -0.040926777 -0.22534347 0.1620522 0.102400094 0.23701961 -0.47838184 0.74088365
-0.20985168 -0.21883823 0.20100309 -0.17737792 0.31133506 0.47138342 0.103529304 -0.23449446
0.056534424 -0.38682187 0.1119808 0.73334104 -0.060609825 -0.6180206 -0.09909992 0.06325252
-0.21996203 -0.017706254 0.21423675 -0.05174777 -0.47122175 0.48650584 -0.14207198 0.010573079
-0.069653116 -0.020590646 0.027624967 -0.028534427 -0.6240856 -0.07003898 -0.10788914 0.7048196

actor.latent_pi.2.weight f4 [256, 256]
00000000: 6a60 81be 6785 303d 4297 1d3e 9e92 073d
00000010: e330 39be 6bf8 b2bd bddf 31bd 0d71 9fbe
00000020: e8bf 3fbe b9f0 513e 773b 97be 786b 0dbe
00000030: 1bb3 8a3e 37fc 003e 5512 1c3d ef22 15bf
00000040: a9f6 bd3c 2408 cb3d a763 b93e 348a 1c3e
00000050: df7d 95be 1662 3dbe 2ddb 28be 5343 523e
00000060: a0f5 9abe d5a9 b33e 60fe 163e bfd6 22bf
00000070: 13ff 65be 65c9 a3bf 387b c5bd cc87 0a3d
00000080: 67a4 6dbe 70d9 15bc a1e6 f0be 2b2b 09bf
00000090: cb17 2ebf 70b3 263e cbd2 11be f075 7dbe
000000a0: cf64 8dbe 94fb a1be fdbd aa3d 40d4 01be
000000b0: 1ca4 41bf 33e2 32bc 84ec 223e bfe4 163e
000000c0: dde6 7f3a 29c0 13be da2a b03e 0ac0 7abd
000000d0: 6ad5 313e 02a6 973d ab58 123e 077f e4be
000000e0: e89b 0d3e 3569 eabc ecd8 38bc de03 aa3d
000000f0: 236f d0be fbc6 8fbd 9819 423f 5813 0f3e
00000100: 3620 1a3d f017 93bc c625 2c3e e508 d53d
00000110: 6a2d ef3e 34e5 68bd a37f 00bd 35a4 8d3e
00000120: dd75 f5bf 5ebd acbd 95e5 1abf 8135 a63d
00000130: 271c fd3e 9f88 6a3d 6983 c3bc d553 9fbb
00000140: aa82 d43e fa6a 12be 76a8 243e 339c a43e
00000150: c4ca 90be 1336 4d3c 052f 59bc 651f edbc
00000160: 5a17 bebe 4861 ca3b 2767 4b3e 8532 ee3d
00000170: 8f69 bfbb 8f52 603e 61c9 a13d 6cd2 5fbd
00000180: 8122 863d 6517 b1be 4ca4 a13d 01e3 99bd
00000190: 89f1 d43d 87a7 a0bd 963f 39c0 4a4c 4bbe
000001a0: c542 e9bd df29 95bf 15a2 7cbd adb8 0ebe
000001b0: 0835 03bd cf29 e7ba 90c0 713e 9518 123c
000001c0: 9cd8 113e 459e 283e 19d2 f43b 5d91 053d
000001d0: 9990 dbbf 33b0 23bd 18f8 96bd a80b f13e
000001e0: 6faa 31be 64ce 853e 5cc1 a93e 0f6e 3ebf
000001f0: 292a 373e 8074 96be 4a24 743d dfc4 1dbd
00000200: ea11 b4bd 4e39 d6be a680 243e 1c37 1abc
00000210: 7404 6abe f8bc 0dbf fc2d 833d 4ba1 233c
00000220: 0a3f f63e cfe4 883d fabd 003e 7a2c 013f
00000230: 7861 8abf ec29 a43d bb13 b8be 2e45 d6be
00000240: dc1b 843e 9bf7 2bbf 6141 433d f94a f3bd
00000250: d242 dabd 10ee 133e 5f73 a5bd a012 96bd
00000260: 1da9 e73d e1e9 d9bd e2c0 29bf 8765 38bb
00000270: 2fad b9bc ffc1 563e 04c5 25bd 33df fa3d
00000280: f877 c7be 938b 6bbd 0bde 3c3e 7302 04bd
00000290: 0708 20be 974b 0cbe b928 4abc d47c debe
000002a0: 12ee 21bb ad39 38bd f564 e1bc 1396 193e
000002b0: 71eb 8bbe 3264 04bf 7417 34bd 655c 74bf
000002c0: 1fd2 82be d2e2 27bd b8cb c93e 4391 29bd
000002d0: 4f45 593c 3d24 b5bd 8cf2 5d3e b096 f9bd
000002e0: 25ee 81be e6bb 3bbd bdd9 c63e 8ab6 82bd
000002f0: 8475 cdbc 8f34 0c3d 7253 3d3e 1295 293d
00000300: fd1b 90bd 0562 d8bd 891a b83d 9ab7 5f3d
00000310: bd19 bb3c 80b6 bebe e1af 2d3e 1a6d e23d
00000320: 1a8d a2bf 5217 6bbd f11e 49be 7dd9 cebc
00000330: c12d 283e 98e7 9a3e 717b 143e 1a00 33be
00000340: cc3b 013e 846b f23d 2f2d 483d 675c eabd
00000350: 26b0 1ebf ff28 903e 718d 98be 5fd3 bf3d
00000360: 4573 53bd bea0 57bd 9185 1dbe de31 6abd
00000370: d412 2abd 82db 533e 516c 303c cc72 103d
00000380: a207 d3be 24b4 8ebd 71fd a63a 8aee 3bbe
00000390: 21aa 7abe 653d 59bd 41ef 15bf b125 853e
000003a0: 8378 0dbf 74ae a83d f231 1c3e 209e 43be
000003b0: df20 11bd afff 5cbf 0118 d6be 5591 953e
000003c0: e990 2c3e d4b7 e33b 7267 123f 05c8 a5bc
000003d0: 1e9e 50be 1a1b f0be 4971 0dbe 8a92 df3d
000003e0: 7c6c 193f b358 a33e 5803 823d c807 52be
000003f0: 2223 eebe be99 173e 1c1a d13a b659 2b3e
-0.2526887 0.043095972 0.15389732 0.03309881 -0.18085055 -0.08738788 -0.043426264 -0.31140938
-0.1872555 0.20501985 -0.29537556 -0.13810527 0.27089772 0.12596212 0.03810342 -0.5825643
0.023188906 0.09913662 0.3620884 0.15287095 -0.29197595 -0.18494448 -0.16489859 0.20533495
-0.30265522 0.3509051 0.14745474 -0.63608927 -0.22460584 -1.2795836 -0.09642643 0.033820912
-0.23207246 -0.009146079 -0.47050956 -0.53581494 -0.68005055 0.16279387 -0.14240567 -0.24752021
-0.27615973 -0.3163725 0.08337019 -0.12678623 -0.75641036 -0.010918188 0.15910536 0.14735697
0.00097618793 -0.14428772 0.34407693 -0.0612183 0.17366567 0.0740471 0.14291637 -0.44628164
0.13829005 -0.02861462 -0.011282187 0.08301519 -0.4070979 -0.070203744 0.758203 0.13972223
0.037628375 -0.01795575 0.16811284 0.10402087 0.46714336 -0.05685921 -0.031371724 0.27664343
-1.9176594 -0.084345564 -0.60506564 0.08115674 0.4943554 0.0572592 -0.023866372 -0.0048622885
0.4150594 -0.14298621 0.16079888 0.3215042 -0.28279698 0.012525099 -0.013255839 -0.028945634
-0.3712719 0.0061761476 0.19863568 0.116307296 -0.005841441 0.21906494 0.07899738 -0.054644033
0.0654955 -0.3458816 0.07892665 -0.07514001 0.10397632 -0.07844453 -2.894506 -0.1985332
-0.113896884 -1.1653403 -0.06167801 -0.13937636 -0.032032996 -0.0017636361 0.23608613 0.008916994
0.14242786 0.16466625 0.0074713347 0.032609332 -1.7153503 -0.03996296 -0.07371539 0.47079206
-0.17350172 0.26134026 0.33155334 -0.74386686 0.17887177 -0.29385757 0.05960492 -0.03851783
-0.08792479 -0.41840595 0.160647 -0.009412553 -0.22853261 -0.5536647 0.06405255 0.009987186
0.4809497 0.06684267 0.1257247 0.5045849 -1.0810995 0.080158085 -0.35952553 -0.41849655
0.25802505 -0.6717469 0.047669772 -0.11879534 -0.10657276 0.14446282 -0.08078646 -0.07327771
0.11311553 -0.10640312 -0.6630994 -0.0028136687 -0.022665588 0.20972441 -0.040471092 0.12249603
-0.38958716 -0.057506155 0.18444078 -0.0322289 -0.15628062 -0.1370071 -0.012338811 -0.4345461
-0.0024708551 -0.04497688 -0.02751396 0.14998655 -0.27328065 -0.51715386 -0.04396768 -0.9545348
-0.25550935 -0.040987797 0.39413238 -0.041398298 0.013261153 -0.088448025 0.21674556 -0.121869445
-0.25377002 -0.04583349 0.38837996 -0.06382473 -0.02508045 0.03422981 0.18488863 0.04140193
-0.07036588 -0.10565571 0.08989436 0.054618455 0.022839421 -0.3724861 0.16961624 0.11055966
-1.2699311 -0.057395287 -0.1964071 -0.02525019 0.16423704 0.30254817 0.14500214 -0.17480507
0.12620467 0.11836913 0.048871215 -0.114434056 -0.6198753 0.28156278 -0.2979541 0.09366488
-0.0516236 -0.05264353 -0.15382983 -0.057176463 -0.041521862 0.20689204 0.010768012 0.03526573
-0.4121676 -0.06967953 0.0012740326 -0.18352714 -0.24478962 -0.053037066 -0.585682 0.2600532
-0.5526201 0.08236399 0.15253428 -0.19103289 -0.03543174 -0.8632764 -0.4181519 0.29212442
0.16852154 0.0069494043 0.57189095 -0.020236978 -0.20372817 -0.46895677 -0.13812746 0.10916622
0.5993116 0.3190361 0.06348294 -0.20510781 -0.4651118 0.14804742 0.0015953216 0.16733441

actor.latent_pi.2.bias f4 [256]
00000000: 57c3 d7bd cd50 74bf 231d 173c 6621 953e
00000010: 3a7f 1fbe c129 84bf 2278 4cbf f869 b93e
00000020: 1155 54bb 855b b73d cf03 5dbf 1840 1cbf
00000030: b764 123f a066 b23e 4865 42ba e977 39be
00000040: ac6e 333f 790c 4abf a365 29be a40e 183f
00000050: 9661 943e e0cb 0f3f fd4d 27bc 2a0c 7fbf
00000060: c322 4e3c 890d 4b3e 6b35 66bf e288 6d3e
00000070: b239 56be 23d1 43be ea66 b5bd e487 a53e
00000080: eb5c 4abe 6737 3dbf 950f 82bf cb29 17be
00000090: ecaf a33e a12a 4d3f d6a9 67be d94a 7fbe
000000a0: 22bf 89bf 9f38 323c 4d30 e23e ad6c 473e
000000b0: 83c5 23bf b898 a53d efdb 8a3e dcfe e5be
000000c0: f5fc f53e b39c 89be a8d4 5fbe ef07 81bf
000000d0: c4c9 dabe 5cba ad3e 2983 e73e a79c 56bf
000000e0: 4350 463f 19c7 78bf 127b 803e 864b fdbe
000000f0: d062 c7be fd7f 653d 6638 afbf 61a6 25bf
00000100: 5c95 91be 2868 fabd 28c9 7ebf 0655 7b3f
00000110: 2a4b d9bd 496e edbd 719f a2be 4e1f 023f
00000120: 39a3 bcbc df52 43bd 2346 22bf e9ed 41bf
00000130: 8ca4 96bd 083b 2cbf 21d6 9f3e 78c4 073f
00000140: 414e 2cbf 423a 40bf be7b a13d b404 1fbf
00000150: 026d 8cbf ef5d 7cbf 7e2b ccbe 8d1d 2fbf
00000160: 89ee 4abe cbdf a23d cccd 21bf 5912 d03d
00000170: f187 53bf ea3b b9be 75e2 9e3d 6f13 153f
00000180: e37a 6fbe d928 573e ab02 5c3e 1948 133f
00000190: c58d 97bf eaa2 203f e6c1 d13e c9ce adbd
000001a0: 1fef 8a3e 270d 07bf 6432 94be b07e 40bf
000001b0: 45e3 a43e 6a15 003d 400b 0b3e 4e2d 7cbf
000001c0: 32a4 233e b954 e5be 6dda 8abe 04c0 6dbf
000001d0: a9d3 bfbf 7b6a 8fbf da7a 2a3e 0e39 e7bc
000001e0: 16dc 203e e7b9 a2bf 4a4b 6ebf aaec 063f
000001f0: 1d0a 443e 7be0 7bbe 6b30 8bbf 45ee 8bbe
00000200: 7642 18bd 1f90 67bf 5d4f 46be ca1f 43bf
00000210: a068 d1be 373a b3be f7ca 663e a5d5 15bf
00000220: e74f 7fbf adb5 eabe f86c 103f d2b9 683d
00000230: 91dc 17be e903 a0bf 6dda 623e a8ba 593e
00000240: f6cb 81bf 1010 133b b842 893e 5cc6 02bf
00000250: 66d8 2c3e 8017 b4be d648 38bf 65c2 32bc
00000260: 88b3 103e 2276 8ebf 5244 54bd 0f1c 5ebf
00000270: 5e42 f1be 4f24 af3e 8f2b afbd 347c 61bf
00000280: a23a 29be fea6 a13e 0026 65bf ea44 25bf
00000290: 3812 ddbe 1141 11bf 572c 75bf a6c8 4dbf
000002a0: 3960 98bf 914f 50be d569 01bf 0c9a 4cbe
000002b0: 5d5a 89bf 6082 e3bd 6068 5fbf 4237 64bd
000002c0: a3ca bebf 1f6c 80be a1c6 4cbf 4ac9 653e
000002d0: d27e 87bf 7000 403e c7d4 70be 1eba 3dbd
000002e0: 74d7 113f 85dc 1ebf fe48 0e3f bd95 62bf
000002f0: 0b65 8dbf c048 4e3d 9903 4cbf 2df5 723e
00000300: d943 b9be 5078 c6be 04b8 cebe 40a3 61bf
00000310: 928c 61bf 5df6 45bd bce0 e0be ded4 5abf
00000320: ff28 c43e c3ee 533f 0ba0 b83d ee07 18bf
00000330: f40e 85bf 33f0 b33e 95d0 2e3e 2f0f 47bf
00000340: 116f 1bbf a51f aebd 86d0 27bf 275d bbbe
00000350: e808 073d d053 203d 83a2 56bf 87a9 d9be
00000360: 4686 543d 1f1f cabf 039d 2a3e 7025 2cbc
00000370: 835d eebf d819 89bf 50f3 4dbf e4ff 13bf
00000380: c840 56bf e692 973d 62ef b53e 7641 03be
00000390: 27dc 113f 8a8b 47be fff3 5abf 0f84 5fbf
000003a0: 6e88 81bf e4e2 633e 2386 e7be 188b 363f
000003b0: 8008 babd 4ff3 f6be 223b e53b 26f2 84be
000003c0: 1ae7 d8be c9ad 823e 083f 933e 472c 89bf
000003d0: 00ba 7cbf 333a 893e d6ce 663f 382c a6bf
000003e0: 5c26 69bf 3b7a 07bd 6a30 5d3f 7a90 ad3e
000003f0: 57ed a33e c2a6 02ba 0c8c 9bbe baa5 183e
-0.10535305 -0.9543579 0.009223255 0.29127043 -0.15575877 -1.0325242 -0.7987081 0.3621366
-0.0032399336 0.08953003 -0.86333936 -0.610353 0.5718493 0.34843922 -0.0007415605 -0.18112148
0.70090747 -0.7892528 -0.16542678 0.5939734 0.28980702 0.56170464 -0.010211465 -0.99627936
0.01258153 0.19829382 -0.8992526 0.23196748 -0.20920447 -0.19122748 -0.0885752 0.3233024
-0.19762008 -0.7391266 -1.0161005 -0.14762037 0.31970155 0.8014317 -0.22623381 -0.24930896
-1.0761454 0.010877757 0.44177476 0.1947505 -0.63973254 0.080857694 0.2712092 -0.44921005
0.48044553 -0.26877365 -0.21858466 -1.0080546 -0.4273206 0.33931243 0.45217255 -0.8383278
0.7746622 -0.971788 0.25093895 -0.49471682 -0.38942575 0.056030262 -1.3689086 -0.64707
-0.28434265 -0.122268975 -0.9952569 0.9817661 -0.106100395 -0.11593301 -0.3176227 0.5082902
-0.02302705 -0.047686454 -0.6338827 -0.7575365 -0.073556036 -0.67277575 0.31218055 0.5303416
-0.67306906 -0.75088894 0.0788493 -0.6211655 -1.0970767 -0.9858083 -0.39876932 -0.68404466
-0.19817556 0.07952841 -0.63204646 0.101597495 -0.82629305 -0.36178523 0.07758037 0.5823278
-0.23386721 0.21011676 0.21485393 0.5753189 -1.184014 0.6274859 0.40968245 -0.08486707
0.2713556 -0.52754444 -0.28944695 -0.7519331 0.32204643 0.031270422 0.1357851 -0.9850663
0.15980604 -0.447912 -0.2711977 -0.9287112 -1.4986469 -1.120437 0.16648427 -0.028225448
0.15708956 -1.2712983 -0.9308363 0.5270487 0.19144483 -0.24597351 -1.0874151 -0.27330223
-0.037172757 -0.90454286 -0.19366212 -0.7622038 -0.40900135 -0.35005352 0.22538362 -0.5852912
-0.99731296 -0.45841733 0.56416273 0.056817837 -0.14830233 -1.2501193 0.22153635 0.2126261
-1.0140369 0.0022439994 0.26808715 -0.5108392 0.16879424 -0.3517418 -0.7198614 -0.010910605
0.14130986 -1.1129801 -0.051822968 -0.86761564 -0.47120947 0.3420739 -0.0855323 -0.88080144
-0.16526273 0.31572717 -0.8951111 -0.6455828 -0.43177962 -0.5673991 -0.9577078 -0.8038429
-1.1904365 -0.20342852 -0.5055211 -0.19980639 -1.0730702 -0.111088514 -0.8726864 -0.05571676
-1.490559 -0.2508249 -0.79990584 0.22440067 -1.0585577 0.18750167 -0.23518668 -0.046320073
0.5696938 -0.62055236 0.5558013 -0.8850973 -1.1046461 0.05036235 -0.7969299 0.2372634
-0.36184576 -0.38763666 -0.40374768 -0.88139725 -0.8810512 -0.048330653 -0.4392146 -0.8548106
0.38312528 0.82786196 0.09014901 -0.593871 -1.0395188 0.35144195 0.17071755 -0.77757543
-0.6071635 -0.085021295 -0.65552557 -0.36594507 0.032967478 0.03914243 -0.83841723 -0.42512152
0.051885866 -1.5790747 0.16661458 -0.010506973 -1.8622288 -1.0711012 -0.8044939 -0.57812333
-0.836926 0.074010655 0.35534197 -0.1281794 0.5697655 -0.19486824 -0.8552856 -0.8731088
-1.011976 0.2225452 -0.45219526 0.7130599 -0.090836525 -0.48232505 0.0069955746 -0.25965995
-0.42363816 0.25523213 0.28759027 -1.0716637 -0.98721313 0.26802215 0.90159357 -1.2982244
-0.91074157 -0.033075552 0.86402 0.3389929 0.32017013 -0.00049839553 -0.30380285 0.1490697

actor.mu.weight f4 [12, 256]
00000000: 4d6f afbd 3c96 4fbe 816a dcbc a047 873d
00000010: efdb 8cbd dde0 0fbd f967 9dbd ed91 7ebd
00000020: 3a01 66bd 95ef 9e3a 6294 373e 1fba d83d
00000030: 9236 d9bd 32ce 99bd 3b53 09bd b928 5a3d
00000040: daf2 e1bc 258b 2fbe e5d2 4bbc ac61 2b3d
00000050: 9252 b9bc 1f4b b83d 400c 2eb9 a101 07bd
00000060: 220a 49bd efc2 903b ebbe ffbe f8d6 873d
00000070: 78f5 543e f8c7 a3bc f9af 69bd dc83 d1bd
00000080: 9175 39bb 5ece 853e 61a0 32be 4dfb ce3d
00000090: 4d30 dd3c 1ae0 2abe 5927 debc ea95 58bc
000000a0: 46a4 1ebd 54cd 4a3d 246d 92bd 3e4c 133e
000000b0: 981e 6c3e aa7a 873e 5bbb 7cbd b1b2 393d
000000c0: 95f3 3c3d 4691 c2bd 471f 123e 16b6 79bc
000000d0: 2e01 ba3d 7083 9c3c 0b9e a4bc a6bf 7abd
000000e0: 19b1 03be 4b5c 183c ee31 7d3d b0f0 293d
000000f0: 154f c6bc 17c1 5b3d d833 cfbd 072b 42bd
00000100: 6dce 87bd 21aa a83b 37b6 2c3e 949a 0bbe
00000110: d577 9fbd e15b f9bc 3a83 41bd 5309 babd
00000120: a52f 303c 9b2d 7ebc f156 4e3d c1ce 63bd
00000130: 8522 093b 3e5b 11be bfde 1b3e cbf6 b6bc
00000140: f1b9 213e c94c 1c3e c87f 5a3e c614 c5be
00000150: b25f 87bd 0f1e 32bc 14ae 85bd e369 923d
00000160: a927 69bc acac 31be ac4b 923e 3d26 3cbd
00000170: b29a a4be d550 7b3d ddc8 5e3d 9075 a53d
00000180: 5828 31bd 3bc8 9fbd 061d 883d e9f4 07bd
00000190: 8eee 103e 27de ec3d 9a29 9e3d 3ae9 cabd
000001a0: 6690 bdbd 4828 a73d abde 24bd 8f1a 163f
000001b0: 6422 c23c e625 1fbc 889e 313d fb36 263e
000001c0: b20b fa3d c02c 9bbd 62ab b73b 8b35 843e
000001d0: 7d65 2abd debe 06bd 74ce 23bd 061c b93b
000001e0: 0a60 8d3d 1cfc 843e 2ca6 e2bd af84 96bd
000001f0: 61a7 823c fec1 013e cb24 773e 1bf8 5f3d
00000200: b35c 06bd 7816 683e 2066 43bd 7078 013f
00000210: c1a6 99bd 1a75 c33d 5886 053e f04e 94be
00000220: e68e bc3b 5e23 173e 5ad7 7c3d d0c3 a23c
00000230: a153 abbb 8c96 91bf 2832 bcbd ddc8 e8bc
00000240: cca2 d63e 6e31 503d 3f63 db3d 27c2 633d
00000250: 1f27 073d d8b3 9f3a 9d95 47be dd94 b8ba
00000260: 0ae9 8cbd ac3a b1bd a9d6 6fbd 2a64 6d3e
00000270: 1ebd a03d d246 a2bd daa8 30bd 6391 983e
00000280: 4a84 48be 808d fa3c b925 753d 8a67 093a
00000290: 7514 163e 8867 833b 450f 603e fab1 1f3e
000002a0: 863a ab3b ff2f 233c 79d3 2fbc af1c 943d
000002b0: d440 24be e1a2 b0bd ac1e af3e 19af 95bc
000002c0: 79c5 00bd b778 14be cd89 563d 0980 8bb9
000002d0: 56de 833f be18 c3bd 33d1 85bc a323 83bd
000002e0: 89aa 91bd 35e7 5b3d baa2 083d 48ae ebbd
000002f0: 3789 0bbf 012d e53d fbae 1a3e 0956 08bd
00000300: 43b1 2d3d 4ae0 e4bc 5065 8a3c 0f65 25bf
00000310: 8f30 4b3d 810c babb d9f2 54bd f328 63be
00000320: 92eb 53bd f2ee 30be d8d8 82bd 1131 b23d
00000330: f155 2c3e 1cff 73be 3aab c6bc 8783 e5bd
00000340: ac7a d5bd d828 4a3d f68e 45bf fb2e 2ebd
00000350: 2410 f9bd 7850 17bc ca48 05be 0bf2 ca3a
00000360: 7f1f 98bd 0742 083e 4eef 5dbe 464f 963d
00000370: a69f 01bf 84c5 06bf 573c acbd 1cee 163e
00000380: 9d04 05be bcdf 543c 87ab bfbd 08a8 9d3d
00000390: 685e b63d 96e4 803b eb67 b0be 1ab2 90be
000003a0: 2fd0 81bd 4b31 eabc 0a36 083d 0acd 733d
000003b0: 7c0b 59bb f98d 59bd aa6a 433c 428b ba3c
000003c0: 54c5 f9bd ebad a9bd de0e f03c e936 2c3e
000003d0: f74d d13e 3f86 2f3d 7ddf 24ba 31cb 56bd
000003e0: d8f6 023e c746 2dbd af6e 383e 96f6 203e
000003f0: ed56 073e 5821 47bd df39 9bbd 9bbd 3b3e
-0.08566151 -0.20272154 -0.026906254 0.06605458 -0.068778865 -0.035126556 -0.07685847 -0.062150884
-0.056153513 0.0012125844 0.17927697 0.10582375 -0.106061116 -0.07510032 -0.03352664 0.053261492
-0.027581621 -0.17142923 -0.012440418 0.041841194 -0.02262238 0.08998703 -0.00016598497 -0.032960538
-0.04908193 0.004417769 -0.49950346 0.06632799 0.20796764 -0.019992813 -0.057052586 -0.10230228
-0.0028298835 0.26134008 -0.17443992 0.101065256 0.02700057 -0.1668705 -0.027118372 -0.013219336
-0.038730882 0.049512222 -0.07149723 0.14384553 0.23058546 0.26460773 -0.061702114 0.04533643
0.046130735 -0.09500365 0.14269744 -0.015241167 0.09082256 0.019105643 -0.020094892 -0.061217926
-0.12860526 0.009299348 0.061815195 0.041489303 -0.024207631 0.05365094 -0.1011731 -0.047404315
-0.066311695 0.005147234 0.16866384 -0.13633186 -0.07786528 -0.03043932 -0.047244288 -0.0908381
0.010753547 -0.015513803 0.050375883 -0.055617098 0.0020925116 -0.14194962 0.1522169 -0.022334477
0.15793587 0.15263666 0.21337807 -0.3849241 -0.06610049 -0.010871424 -0.065273434 0.071491025
-0.014230647 -0.17351025 0.28573358 -0.045934904 -0.32149273 0.061356384 0.054390777 0.08079064
-0.043251365 -0.07801863 0.06646161 -0.03319255 0.14153501 0.1156581 0.077227786 -0.09907766
-0.092560574 0.0816198 -0.040251415 0.58634275 0.02369804 -0.009713626 0.043364078 0.16231911
0.12209262 -0.07576895 0.005605147 0.258221 -0.041600693 -0.03289687 -0.03999181 0.0056490926
0.069030836 0.25973594 -0.11066851 -0.07349526 0.015948953 0.12671658 0.24135129 0.05467997
-0.03280325 0.22664821 -0.047704816 0.505744 -0.07502509 0.0954382 0.1303953 -0.28966475
0.0057543395 0.14759585 0.061728813 0.019868761 -0.005228475 -1.1374068 -0.09189254 -0.028416092
0.4192108 0.05082839 0.10712289 0.05560508 0.032996293 0.0012184335 -0.19490667 -0.0014082451
-0.06880386 -0.08653769 -0.058554325 0.23182741 0.07848571 -0.07923664 -0.04312978 0.2979842
-0.19581714 0.03058505 0.05985043 0.0005241564 0.14656241 0.0040101446 0.21880825 0.15595236
0.0052254824 0.009960174 -0.010731571 0.072320335 -0.16040355 -0.08624817 0.34203088 -0.01827197
-0.031438325 -0.14499174 0.05237751 -0.0002660754 1.0302227 -0.095262036 -0.016335106 -0.064032815
-0.07112605 0.053687293 0.033358313 -0.11507851 -0.5450625 0.111902244 0.15105812 -0.033285175
0.042405378 -0.02793898 0.016894013 -0.6460733 0.049606856 -0.00567776 -0.05198941 -0.2218359
-0.05173833 -0.1727865 -0.06389016 0.08700765 0.16829659 -0.23827785 -0.024251569 -0.112067275
-0.104237884 0.049355358 -0.77171266 -0.042525273 -0.12161282 -0.009235494 -0.13016048 0.0015483511
-0.074278824 0.13306437 -0.21673319 0.07339339 -0.5063423 -0.52645135 -0.084099464 0.14739269
-0.12990041 0.012992796 -0.09358888 0.07698065 0.08904725 0.0039334996 -0.34454283 -0.2826088
-0.06338536 -0.028587958 0.03325466 0.059521712 -0.0033118417 -0.05311391 0.011927286 0.022771481
-0.121958405 -0.08285125 0.029303964 0.16817822 0.40879795 0.042852636 -0.0006289406 -0.052439872
0.12789476 -0.042303827 0.18010972 0.15719065 0.13216753 -0.048615783 -0.075793974 0.18334047

actor.mu.bias f4 [12]
00000000: 4d76 063b 5ae5 95be aca1 c93d c3e0 0c3d
00000010: 1126 2dbe c9c0 fd3d 8021 83bd 921c 8cbe
00000020: 8c31 183d 8b9c 503d 6fa6 34be 4adb dcbd
0.002051729 -0.29276544 0.098452896 0.034394037 -0.16909052 0.123902865 -0.06402874 -0.27365547
0.037156627 0.05093054 -0.17641614 -0.107840136

actor.log_std.weight f4 [12, 256]
00000000: c8a1 d8bb f1e6 eb3c 1db7 8a3d 1a67 c83d
00000010: 07b6 a53c 83eb bb3d ab7f 62bd 8aee a83d
00000020: c387 813b f4ab bb3d 5461 31be 094b 2b3d
00000030: d3fc 1b3d f5ef 233c 0579 e5b9 9bde 0d3d
00000040: 0244 83bc 3d99 6b3d 77cb 123d 2cfc cd3c
00000050: 6dd3 403d cc21 b93d af69 873b c44f 423d
00000060: 7aec 633e deb5 913c fd0b 8e3d 258a 293d
00000070: 75b7 123e 3651 ccbc f0ca 603c ac57 cabc
00000080: 2146 4a3d 1669 af3d a514 0e3d 6bcd 3f3d
00000090: df82 cd3d 8d5e c1bb 4925 89bb 1d9f 81bd
000000a0: 0cad 85bb 5331 8b3d 8f66 793d 958d b83d
000000b0: 508b da3c 47c5 bc3e f892 84bc d400 a9bc
000000c0: 731d 573d 1b96 a1bb d332 9a3d f683 0e3d
000000d0: 3f7f 573d 248b 38bd 97d8 c4bc d06a 16bd
000000e0: 8854 a13c 456b 383c 7a93 3cbd 6705 523d
000000f0: 952e d8bc a513 3bbd 10e3 3e3d 4975 a0bc
00000100: 909b 6ebc 50ef 83bd b3ef 883d 5c77 953d
00000110: 34f2 62b8 576c 6e3d 2b5b 4bbc 807d 963a
00000120: 5bb3 893d b584 5e3d c07e 11bd f681 d53d
00000130: 8929 943d b647 213d 5932 0c3e c1bc cd3c
00000140: fd26 a53e 00fc 953d e94f 093e ef3b 233e
00000150: ecb5 833d ccb8 1dbb 321c a1bc 7972 7fbd
00000160: 4e6e 5fba a9f2 253d 997a 203c e902 80bc
00000170: 506c fcbd 0806 b9bc ea8d ebbc 654d a03d
00000180: 17b8 5bbc 4811 c93a 01d2 5cbd da6b 2838
00000190: 887b 45bd 9e01 d03d 0b53 4a3d 671a 9f3d
000001a0: 2982 c33d 2472 9c3d 7fb2 a6bd e67b 783e
000001b0: f2ba 4a3c 572a 4fb8 449a 983d b161 6a3d
000001c0: 1e1a 1c3d b273 2d3b ed0e 89bc c8d7 003d
000001d0: d7d4 533a 94fe b1bc 6732 edbc 3591 5ebd
000001e0: 68df 11bd f6a1 b93d a8cf 0bbd 83af d3bb
000001f0: 1201 a53c e8a9 563d 894a de3d f13b 033d
00000200: 8ff7 3ebc 33b7 b4bb 3ba2 813c 3804 c83d
00000210: 2054 a1bd ac86 5f3d 9b75 0b3e ff8e 32bc
00000220: 69ab d2bc b12d 1e3e 05f6 bd3c a011 0d3d
00000230: 4251 173d 3158 b33f a915 093d 347d 183c
00000240: a3f6 843e 7c9f 5a3c 426f b63b f552 4cbd
00000250: 1dd3 82bc 6d06 9bbc 5323 89bd db8f 83bd
00000260: fe2a 86bb 634c 313d b3d5 56bc e095 bb3d
00000270: 3778 00bd f650 e3bc 0326 883c 1cf3 fc3d
00000280: 2314 bf3d b00c 19ba f36b 363d 5d8a ccbd
00000290: 6a17 af3d 1cef b9bc 7aac 2a3d fafc 0f3d
000002a0: 28e1 dc3d 504d cf3c 3ad4 c7bc 3fc3 8abd
000002b0: f2b3 8b3b 4ba3 203d 1715 803e b1e8 af3c
000002c0: 0a89 ce3c d0d6 123d 031d 0cbd 51b6 df3c
000002d0: bb71 3b3e f5b6 b13d 0593 2f3b 2b4e f0bc
000002e0: 31f6 9bbc 03b5 633d 9e5c 2abc c464 c5bb
000002f0: 4412 73bc c439 db3a f6f4 2e3d 5f58 3a3d
00000300: a470 783b 10a4 313c 2974 113d 1e0b c53e
00000310: 6fe2 4fbd ee6b 66bd 5608 33bd 3ab2 0c3c
00000320: f4c0 973b d1b1 f33d 91ac a43b 19b0 71bc
00000330: 6196 a0bc 975c 4b3e 2715 1d3d f326 0fbd
00000340: a8da ebbc 0577 9abc 7145 07be 2ba9 cebc
00000350: 6789 583d b6e7 debb 8b22 4bbe 9dba 4fbc
00000360: fa1c 943d 2540 4c3d d521 853e 4c24 db3c
00000370: 85f0 863e 3a57 733d 9b34 463d 58ca ad3d
00000380: b95d e13d bf66 b73c efd9 413d f1dd 89bd
00000390: caa8 e23c 14f6 10bd 2674 2bbc 05ce d73d
000003a0: 20cd 0c3d 4f6a da3c b223 21bc a2c7 73bc
000003b0: 9ebb 18bd 9059 313c 1ee5 69bc 0163 97bb
000003c0: e359 f3bc 584f ae3d 7cc3 c3bb 63b0 7abc
000003d0: 2e27 4e3e 3aa3 773d 2f90 053d 113f 34bc
000003e0: f7d8 a23d 4d69 1f3d 0342 c73d 7cf1 a33d
000003f0: 20cd fb3d d8fd a93c ccf3 bcbc 4238 8c3d
-0.0066110827 0.028796645 0.06773207 0.0978529 0.020228399 0.0917578 -0.055297535 0.08248623
0.0039529516 0.09163657 -0.17322284 0.041819606 0.03808291 0.010005941 -0.0004376845 0.03463612
-0.01602364 0.057519186 0.03583857 0.025144659 0.04707663 0.09039649 0.0041324715 0.04743935
0.22258177 0.017786916 0.0693588 0.04139151 0.14327796 -0.024941068 0.013720259 -0.024700008
0.049383286 0.085649654 0.034687657 0.04682676 0.10034727 -0.005901164 -0.004185353 -0.063291766
-0.0040794667 0.06796517 0.060888823 0.0901138 0.026677758 0.3686926 -0.016183361 -0.020630278
0.05251832 -0.004931224 0.07529225 0.034793817 0.052611586 -0.04505457 -0.02402906 -0.036722958
0.019693628 0.011256044 -0.046039082 0.051274683 -0.0263894 -0.04567303 0.046603262 -0.019587176
-0.014563456 -0.064421296 0.06686344 0.072981566 -5.4108168e-05 0.05820879 -0.012411873 0.0011481494
0.067236625 0.054325778 -0.03552127 0.10425179 0.07234485 0.03937503 0.13691081 0.025114419
0.32256308 0.07323456 0.1340939 0.15940832 0.06431183 -0.0024066446 -0.019666765 -0.06236503
-0.00085232116 0.040514622 0.009794855 -0.015626388 -0.123253465 -0.022585884 -0.028754193 0.07827262
-0.01341059 0.0015340233 -0.053911213 4.0154766e-05 -0.04821351 0.101565585 0.049395602 0.07768708
0.095463105 0.07638958 -0.08139514 0.24266014 0.012373673 -4.9392078e-05 0.07451299 0.057222072
0.038110845 0.0026466665 -0.01673075 0.031455785 0.0008080727 -0.021727838 -0.028954698 -0.0543377
-0.035613447 0.09064095 -0.034133583 -0.0064601316 0.020142112 0.05240813 0.1085406 0.032039586
-0.011655702 -0.005515003 0.015824428 0.0976643 -0.07877374 0.054571792 0.13619082 -0.010898351
-0.0257165 0.15447117 0.0231886 0.034440637 0.036942728 1.4011289 0.033467922 0.0093071945
0.2596942 0.013343688 0.005567462 -0.0498838 -0.015969807 -0.018923962 -0.06696191 -0.06423923
-0.0040944805 0.04328574 -0.013112473 0.09159446 -0.031364646 -0.027748566 0.016619688 0.12351057
0.09330013 -0.00058383774 0.044536542 -0.09987328 0.08549388 -0.022697024 0.041668393 0.035153367
0.10785133 0.02530542 -0.02439319 -0.067755215 0.0042633945 0.03921823 0.2501609 0.02147326
0.02521183 0.035849392 -0.034207355 0.027308615 0.18305103 0.086774744 0.0026790511 -0.029334148
-0.019038292 0.055592548 -0.010398058 -0.006023975 -0.014835898 0.001672559 0.04271408 0.045494433
0.0037908936 0.010842338 0.03551117 0.38485044 -0.050753053 -0.056255274 -0.04370912 0.008587414
0.004631156 0.1189915 0.0050254543 -0.014751458 -0.019602956 0.19859539 0.03835025 -0.034949254
-0.028790787 -0.018855581 -0.13210084 -0.02522715 0.052865412 -0.0068025244 -0.19837396 -0.012678769
0.07232089 0.04986586 0.26002374 0.026750706 0.26355377 0.059409358 0.048390012 0.0848586
0.11004204 0.02238786 0.04732698 -0.06731785 0.027668376 -0.03539093 -0.010464704 0.10537342
0.03437531 0.02666202 -0.009835171 -0.014879139 -0.0372883 0.010824576 -0.014275817 -0.0046199565
-0.029705947 0.08511227 -0.0059742313 -0.015300843 0.20132133 0.0604584 0.032608207 -0.011001364
0.07951539 0.038918782 0.097293876 0.08005044 0.12294984 0.020750925 -0.02306547 0.06846668

actor.log_std.bias f4 [12]
00000000: e2aa 18c0 e0bd 1bc0 50bf 16c0 423d 19c0
00000010: 9d38 19c0 e6ac 18c0 4a4c 1dc0 fe68 1bc0
00000020: 5485 1cc0 6bdf 1ec0 a6b4 14c0 c778 19c0
-2.3854299 -2.433464 -2.3554268 -2.3943639 -2.3940804 -2.385553 -2.4577813 -2.4282832
-2.4456377 -2.4823864 -2.323526 -2.3979967
