onnx_inference/data/isaac_model.onnx (onnx, 189915 bytes, 8 tensors)

0.weight f4 [128, 98]
00000000: 8a5a ab3e d357 86bf 09aa e6bd 049f 603e
00000010: 10a1 54bf 2ca6 6cbe 613b e8bc ba42 663b
00000020: 3972 d93e 15da 4b3e 6c45 563c 0db8 423f
00000030: f12b 7d3e 1c3f 513e ef9d 9cbe 0e23 e83d
00000040: 3d4b 183d 8ff8 6dbf d571 473f a9a9 b63e
00000050: 2cda 77be 2edc ddbe 4ed5 21be 05f2 483d
00000060: 1206 833e 39ec e0bd 44f9 103e 7273 13be
00000070: c20c 823d bf87 393f e94d 773f 12c3 053f
00000080: 4d06 f7be 5f18 34bf d1f2 4fbe 4770 063d
00000090: fa99 323f ca11 d0be 02c8 913e 1c93 35be
000000a0: a2f8 8cbe 9b85 873f a439 dfbc 60f2 023c
000000b0: 4dd4 ae3c b704 12bc 16fc 4d3d 0b03 723c
000000c0: f996 d23c 108a 1abc f751 453d 9af4 35bd
000000d0: 1ff9 d7bc 81ec d7ba 29aa d03d 6803 3bbd
000000e0: 8dc1 833d da14 c6bc fd24 0c3c c146 ef3b
000000f0: ef30 8e3d 9993 c63c b7a0 f5bc 2e7c 4abd
00000100: 3480 cc3c ae15 573c fb24 a3bd 855e abbd
00000110: 2ab6 7b3d abd2 883d 15a4 933c cc2d 1c3c
00000120: 75aa 903d b4fb 57bd 57ea fcbc fb2c 0c3d
00000130: c83b 023d dc47 86bd 9381 133e 1731 fb3d
00000140: de17 0a3e ad96 7a3e 7ccd ca3c e8a5 d83c
00000150: def3 98be bf37 013e 1cdf 21be 7928 8e3d
00000160: 8b6c 1d3c 3314 3e3e b723 c13d abbe 113e
00000170: 63e8 29bd f551 38bd 8d8d a33d e987 1d3e
00000180: dd5a 163e 8bee 58bd b3eb a7be 4dea efbc
00000190: 80c6 c5bc 6b91 2dbd 7f93 77bd 93e3 afbb
000001a0: 263d 8cbb 8778 b53c f490 153e 2181 c83d
000001b0: 94d0 45be 63c1 1cbd 1403 4b3e f249 16be
000001c0: 57d1 b83e 9f71 0e3e 4992 a6be 9ef1 853e
000001d0: ee69 51bd 338e 993e d3ab 26be 7cb1 a6be
000001e0: e65b b0be 091a 7b3e 94a1 eabe 785a 17bf
000001f0: 4277 7d3d 3fdb 373f 5389 6d3e 40f9 043e
00000200: 3b51 643d 9aeb 113e b259 c7bd ba56 ecbe
00000210: afd1 00bf 0b65 8f3e 6c35 b8be 9737 08bf
00000220: ffa6 013d b00e 423f 2468 9e3e 4161 7a3e
00000230: b5bc ef3c 82f5 7bbb 1be7 533d 9cdc bbbc
00000240: 8ecf 1dbd 0337 abbd a08f db3c d675 a63d
00000250: a454 74bd 5aae bcbd 6e51 42bd d7da 86bc
00000260: 6c7d 8e3d 744e eabc 0ba2 613d f7f7 9dbd
00000270: cbff 943c 602b 013e 692b 8ab9 5361 013d
00000280: 24c9 2abe 64ad 04bd cad4 4abe 307d 2cbd
00000290: 525d b5b9 a205 833e 5750 79bd 5940 63bd
000002a0: b7cb cfbd b100 933d 2571 1abe d3a9 4b3e
000002b0: 40b8 853d 71c9 2b3d 7e1d 183d f922 603d
000002c0: e235 92bd 9a8c 74be 1017 b83d d20f ae3d
000002d0: ca71 813e 4ac9 9fbd 373c ccbd 9953 85be
000002e0: 2874 4e3e 1fe0 96be 1e10 5f3d 2336 763e
000002f0: d722 2bbb 280b 14be 5eb9 8d3d 0e7b b9bd
00000300: 3c61 61bd a331 91bd 3955 c3bc 2bb4 223d
00000310: 25eb 52bc 9a4d 8ebe b7e3 203c 60c4 57be
00000320: 667a 9abe 542f df3b f69b f13d d96f 383e
00000330: a46c ca3e e3ea 053e e653 513e df0b 4c3c
00000340: fe7b dfbd 9f1b 103f 0025 cc3e 827e 123e
00000350: baba 3b3f b83a 033f 167a 1c3f 296b debe
00000360: c241 adbe 151d 523f 94b6 67be b21a 85be
00000370: 8203 1bbf 1866 2f3f 62a1 9abe 61b8 a53e
00000380: fc81 db3d c916 823e 65f2 0a3f 8199 06bf
00000390: a39d 88be ade9 7e3f fed2 44be 0979 f3bd
000003a0: a605 09bf aace 373f 188f aabd f133 c03e
000003b0: a6d2 563e b2e8 973e 29dd c7bc 9344 dfbd
000003c0: 92ff 2c3d 0efe a23c 4da7 c0bb 1418 69bd
000003d0: 3eeb 5a3d 1d6c 09bd 633c 38bd c017 b6bc
000003e0: 4524 2abd ee41 22bd 8c85 f3bc ad36 b4bd
000003f0: c8cb fabb 6ef2 ad3c c881 2ebb 5574 2fbd
0.33467513 -1.0495552 -0.112629004 0.2193566 -0.8305826 -0.23110265 -0.028348627 0.0035134987
0.42469957 0.1990741 0.013078075 0.7606209 0.24723794 0.2043423 -0.30589244 0.11334811
0.037181128 -0.92957395 0.7790807 0.35676315 -0.2420432 -0.43332046 -0.15804026 0.049058933
0.2559057 -0.10982556 0.14157587 -0.14399508 0.063500896 0.7247276 0.96603256 0.5225078
-0.48246995 -0.7034969 -0.20307471 0.03282192 0.697662 -0.40638572 0.28472906 -0.17731899
-0.27533442 1.0587648 -0.027249165 0.007992357 0.021341467 -0.008912257 0.050289236 0.014771233
0.025706755 -0.009432331 0.04817387 -0.044422723 -0.026363907 -0.0016473682 0.101887055 -0.045657545
0.06433401 -0.024179865 0.008553741 0.0073021357 0.06942927 0.024240302 -0.029983861 -0.049434833
0.024963476 0.013127727 -0.07966038 -0.083676375 0.061453022 0.06680807 0.018022576 0.009532403
0.07063762 -0.052730277 -0.03087346 0.034222584 0.031795293 -0.06556675 0.14404897 0.122652225
0.13485667 0.24471541 0.024756186 0.026446298 -0.29873556 0.12618922 -0.15807766 0.06941313
0.009608398 0.18562393 0.0943064 0.1423289 -0.041481387 -0.045000035 0.07985983 0.15383877
0.14683099 -0.052961867 -0.32797012 -0.029286528 -0.024142504 -0.04237501 -0.060443398 -0.005367705
-0.0042797504 0.022152198 0.14606076 0.097902544 -0.19317847 -0.038270365 0.19825393 -0.14676645
0.36097214 0.1391053 -0.32533482 0.26160902 -0.051126413 0.29991302 -0.16276483 -0.32557285
-0.34445113 0.2452165 -0.458264 -0.5912242 0.06188131 0.7181892 0.23196916 0.12985706
0.05574153 0.14250031 -0.09733905 -0.46159917 -0.5031995 0.28006777 -0.35978258 -0.53209823
0.0316534 0.7580366 0.30938828 0.24451162 0.029264787 -0.0038445895 0.05173407 -0.022932343
-0.038528018 -0.08360102 0.026801884 0.08127944 -0.059651032 -0.092129424 -0.04744094 -0.016461773
0.06957516 -0.028601862 0.055086177 -0.07713311 0.018188378 0.12614202 -0.00026353754 0.031586956
-0.16678292 -0.03239192 -0.19807735 -0.042111576 -0.0003459254 0.25590235 -0.060867634 -0.05548129
-0.101462774 0.07177866 -0.15082224 0.19889002 0.065292835 0.041940156 0.0371375 0.054720853
-0.071391836 -0.2388176 0.08988774 0.08499111 0.25282127 -0.07802065 -0.099724226 -0.26040342
0.20161498 -0.29467866 0.05445873 0.24044089 -0.0026113295 -0.14457381 0.069201216 -0.09056674
-0.05502437 -0.070895456 -0.023844348 0.039722603 -0.012873446 -0.2779358 0.009819916 -0.21071005
-0.30171508 0.006811062 0.11797325 0.18011416 0.3953601 0.13077883 0.20442161 0.012454002
-0.109123215 0.56292146 0.3987198 0.14306071 0.733318 0.5126147 0.6112379 -0.43441132
-0.33839232 0.82075626 -0.22628242 -0.2599693 -0.6055223 0.6851516 -0.3020125 0.32367232
0.10718152 0.2540801 0.54276115 -0.5257798 -0.26682767 0.9957531 -0.19221112 -0.1188832
-0.53524244 0.7179972 -0.08328074 0.37539628 0.20978794 0.2966972 -0.02439745 -0.10901751
0.04223592 0.019896533 -0.005879319 -0.05690773 0.053447 -0.03355037 -0.044979464 -0.022228122
-0.041538496 -0.039613657 -0.029726766 -0.08799491 -0.007653687 0.021233764 -0.0026627649 -0.042835552

0.bias f4 [128]
00000000: 51e2 363e cd38 88bd 7737 d3bb a546 dd3b
00000010: 7f21 7d3d ca4b 053d 5db4 cfbc 5941 82bd
00000020: 2f70 a43d d909 ce3d 8d10 f9bd c4e6 bdbc
00000030: 19dd 67bd 52a7 7b3e b3df 183e c3d0 9abd
00000040: 3499 4bbd 6b19 593e 6078 3e3e 7686 2dbe
00000050: f293 ffbd 1dc5 0e3e a7c6 0abe 9643 1abc
00000060: 4c2e 783e 5d6f 7e3e 099a a3bd a4fc 26bd
00000070: 11e1 193d 4060 b03d 7fd7 073e 3481 58bd
00000080: b553 ba3c 83f9 b73d 1f0c ae3d 6060 593d
00000090: 3f17 6cbe 1624 653c fd23 683d 7c79 aa3d
000000a0: 313a 9abe e4e4 8c3b 2921 433e ecc1 aabd
000000b0: a56d 3dbe 83f7 2b3e 93de b73d 1927 c1bc
000000c0: 6cdb a4bd 5912 77bc 5cc5 8b3d e714 02be
000000d0: a475 29be 7806 9f3b 4ce0 313d d522 c43d
000000e0: f1e8 a2bc 9998 01bd 5150 f2bd 1226 253e
000000f0: 1810 96be 9470 d7bd fc1a 84bd 8bf6 873d
00000100: 5936 11be 5fe1 783e 2a70 afbc dfcf c8be
00000110: 4b47 1abd db19 1cbe 7f15 ad3d e7bc 41be
00000120: 4a86 91bc 221f 78be 4e48 52bc e9ac 96be
00000130: cd8c 833e 2743 0cbe db33 9f3c a65f 893d
00000140: 05d3 10be a448 2ebe d345 95bd 2cd2 39bc
00000150: 96b5 143d a7c5 cebb 09a8 f7bd e208 ffbc
00000160: 1e0e 64be 9813 623c 0cdf e4bc 4ec8 cd3d
00000170: a4b5 83bd e607 42be 9520 2c3d 853b 353e
00000180: a7ae 8a3d 5379 fe3d 9c2c 6cbb 8a97 73bd
00000190: c8b5 5bbd 4867 00be db93 02be 21a1 4ebe
000001a0: 8e30 a2bc 76d5 bf3d 4831 9dbd 7f1d 59bc
000001b0: 1355 babc d953 50bd 3cca 963d 6140 30bd
000001c0: 8c12 42bd 6c62 e93d e1de 1bbe d222 e8bd
000001d0: d2e1 8cbc abaa 05bd a84f 123d 162d 893c
000001e0: 5946 5fbd a520 1a3e 9b0a 863d 43a3 bf3d
000001f0: 80a9 7ebd 7a98 dc3d b860 213e b269 c6bd
0.1785977 -0.06651459 -0.006445821 0.0067528063 0.061799522 0.03254298 -0.025354559 -0.0636012
0.0802921 0.10060472 -0.1216136 -0.023181327 -0.05660734 0.24575546 0.14929084 -0.075593494
-0.049706653 0.21201102 0.18600607 -0.16945824 -0.1247939 0.1394238 -0.13552342 -0.009415528
0.24236411 0.24847169 -0.07988364 -0.04076828 0.037568156 0.08612108 0.13265799 -0.052857593
0.022744993 0.089831375 0.08498406 0.053070426 -0.23055743 0.013985654 0.056674946 0.083239526
-0.30122522 0.004299747 0.19055618 -0.08337769 -0.18498857 0.16793637 0.089779995 -0.023578214
-0.08049664 -0.015080058 0.06824753 -0.12703286 -0.16548783 0.004853066 0.043426797 0.09576956
-0.019886466 -0.03163967 -0.118317254 0.16127804 -0.29309154 -0.105195194 -0.06450459 0.06638821
-0.14180888 0.24304722 -0.021415789 -0.39221093 -0.037665647 -0.15244238 0.08451366 -0.18919717
-0.01776423 -0.24230626 -0.012834622 -0.29428795 0.2569336 -0.13697492 0.019433906 0.067076966
-0.14142998 -0.17019898 -0.072887085 -0.011341613 0.036305986 -0.006310183 -0.12092597 -0.031132165
-0.2227101 0.013798617 -0.027938388 0.10047971 -0.064311296 -0.18948326 0.04202326 0.17698486
0.067715935 0.124254845 -0.0036037331 -0.05947069 -0.053640157 -0.12539399 -0.12751715 -0.20178653
-0.019798543 0.09366886 -0.07675415 -0.013251661 -0.022745645 -0.050861213 0.07362792 -0.043030147
-0.04738097 0.113957256 -0.1522174 -0.113347664 -0.017197523 -0.032633465 0.035720497 0.016745131
-0.054510448 0.15051515 0.065449916 0.093573116 -0.062173367 0.1077127 0.15759552 -0.096881285

2.weight f4 [128, 128]
00000000: 85cd b93a 6a8f eb3d 8875 0c3d bce1 f83c
00000010: 21a2 cb3c 2ce6 0c3e b3bf 80be 76f5 0a3d
00000020: 0c44 c33d 70b8 5dbe c668 a6bc 637a 223d
00000030: 023a e23d 175d 563d e3e3 32bd ee91 1e3e
00000040: aeaa 3f3e dbbf 8ebc 2684 90be 4803 323d
00000050: 396d 923d 0b56 05bd 4037 1b3e 682c bebd
00000060: 5eb4 663d c553 143e 31e2 483e 69f2 cebc
00000070: 98be b5bd da58 92bd 3db6 e73c 9012 933e
00000080: 9c2b 213e f4f5 903d f3a4 74bc 3c01 95bd
00000090: 513d 763d 12f5 7abe 5959 00bd ee2f 803d
000000a0: 0a6e af3c b7d7 243e 825f b43d 5408 c53d
000000b0: 226e f2be 01ea bf3c b190 423e ddd7 c63c
000000c0: 75b6 cc3d aa09 88bd 360d 8c3d adea b2be
000000d0: 1298 b8bd ea80 e93c 966d 243e c4d6 4dbd
000000e0: 6b41 c93c f97c ca3d 6d97 87bd 8721 59bd
000000f0: cc85 25be 1d8d ba3d 09b0 0f3d e7dd 793d
00000100: 13c3 9ebc fff2 08bb c842 bfbd 8c7f b83d
00000110: a855 3b3e 11b2 0fbe a119 a4bd 4927 bbbd
00000120: 0a2c 12bd 29e4 933e 0080 ecbc 18aa bdbd
00000130: 304d 65bd 0877 cb3a 653e 46be 77d7 11be
00000140: 9612 683d dfb3 ad3d 43c1 fa3d 8848 96bd
00000150: cac2 a2bd ea3b 9bbd c292 553e 4245 2bbe
00000160: b21a c63d 7696 94be d2be 5bbb 3e21 58be
00000170: b911 2f3c 7ede 623d e8b9 773e 302f 03be
00000180: cee8 303e 55fc 543e ebda 26be 98c8 41bc
00000190: 9ff3 453d 82f1 453c a027 f2bc 9eee 2dbe
000001a0: 4d23 023e 3d45 fa3d 2014 213e a073 46be
000001b0: 75fd 0c3d 18f3 28be c270 f83c 7339 69bd
000001c0: be62 ee3c 4bb1 f6bd c84f bebc cf02 7dbe
000001d0: 0797 2b3d 2919 0cbc e557 d93c 4e15 753c
000001e0: 6574 9cbd 1e38 06bc 66aa 4c3d fd2e 97be
000001f0: 30bb 883d 7346 ba3c 2be9 943d 65d1 8f3c
00000200: eb7a 873c 4fee 9bbd c28d d5bd d178 463d
00000210: 336b f3bd 2b0d d5bd 6264 54be b11f b43d
00000220: 8e8d a53d cb3e 8d3c 2882 233d b5c6 ccbc
00000230: 8171 473d 6f94 38be 580a 9a3d 8776 793c
00000240: c325 73bd 0820 1cbe ea9b fcbc 914d a1bc
00000250: c526 a23d 268b c03d df3c ad3d c219 07be
00000260: 713c 783d 589c 6ebb 908a f4bd a5b6 0c3d
00000270: f10a f3bd dc08 0b3e 4521 833c f8c1 5cbd
00000280: 4635 253e 3526 edbc 9dc7 2cbe 5df0 79bd
00000290: da62 813d c76b 91bd 59ef 2dbe cc82 67bc
000002a0: 2fab f13d 906d 26bc eb55 a8bd b89f f73c
000002b0: 409a abbc 1224 5f3c 729b 943d ce33 cfbd
000002c0: 3b5e 3fbd 811d 943d 6985 653e 57eb 60be
000002d0: b70e e13d 39e4 053d 7115 023c d786 9fbc
000002e0: 8c86 bdbe 8ddd 803c 48a5 ca3d ec96 903d
000002f0: ee47 243e cfd2 9abd 5860 143e ee0e 7c3d
00000300: aa7a 6ebb c1e1 d8bd af40 1c3e a5c5 d9bd
00000310: 6fe7 913d bd01 083d 6a86 f23d aec8 3fbd
00000320: aba1 82bd 38f1 29bd 1d3c 0abd bac7 e43d
00000330: c6c0 39be ea4a e33b 8578 943d f2f5 383e
00000340: e0cd f13c 79a4 2e3e bbde 683d 0a96 2cbe
00000350: 254a b33d efbf 073e 6c60 fb3d 3a06 c93d
00000360: 7b44 8d3c bc6e a43c cbb3 87be 899d 9b3d
00000370: 46a8 3d3d 88ad 68bd 4cc9 363d 9812 d13d
00000380: e8db 263d 292d 2e3c d65e ccbe ef28 533d
00000390: 84af 593d d234 553c 8da6 603e a5e7 b93c
000003a0: ee1a 03be 6e3e 013a 5375 43bd 219c 0f3e
000003b0: 6ddc 4abe a3ba a1bd 1881 a33a cdc8 20be
000003c0: 3295 043e f484 6cbe 436c b93d d218 9ebd
000003d0: 2e33 153c 629a 413d 2ab2 59be 08e3 c03e
000003e0: 64b9 54be f4de edbc ec8f de3d f6f6 df3d
000003f0: 68ab 0e3e 3478 263e 587f 073e 069a 2dbd
0.001417563 0.115019634 0.034291774 0.030381076 0.024857583 0.13759679 -0.25146255 0.033925496
0.09534463 -0.21652389 -0.020313632 0.0396675 0.1104622 0.05233487 -0.04367436 0.15485355
0.18717453 -0.017425468 -0.2822582 0.04346016 0.07149739 -0.03255276 0.15157795 -0.092858136
0.056324355 0.1448508 0.19617535 -0.025262075 -0.088742435 -0.07145853 0.02828514 0.287251
0.15739292 0.07078162 -0.014931905 -0.07275626 0.06011707 -0.2450755 -0.03133521 0.06259142
0.021414775 0.16097914 0.08807279 0.09620729 -0.4734965 0.023427011 0.19000508 0.024272854
0.099957384 -0.06642468 0.06838457 -0.34944668 -0.0901338 0.028503854 0.16057429 -0.050253645
0.024567327 0.09887118 -0.06620679 -0.05301049 -0.1616432 0.091089465 0.03507999 0.06100264
-0.019380128 -0.002089679 -0.093389094 0.09008703 0.18294394 -0.1403277 -0.08012701 -0.091383524
-0.03568653 0.2888501 -0.028869629 -0.092609584 -0.055981815 0.0015523145 -0.19359739 -0.1424235
0.05665835 0.08481573 0.12243893 -0.07338053 -0.07947309 -0.07579787 0.20856765 -0.16725639
0.096730605 -0.29021043 -0.0033530486 -0.21106431 0.010685378 0.055387966 0.24192011 -0.1281097
0.17276308 0.20799382 -0.16294448 -0.01182761 0.04832804 0.012081506 -0.02955991 -0.16985556
0.12708779 0.122202374 0.15730333 -0.19380045 0.034421403 -0.16498983 0.030327205 -0.056939553
0.029099818 -0.12045535 -0.023231402 -0.24708103 0.041892078 -0.0085509205 0.02653117 0.014958693
-0.07639388 -0.00819209 0.049967192 -0.29528037 0.06676328 0.02273867 0.07271036 0.017555902
0.016538104 -0.07613813 -0.10427429 0.048455063 -0.11885681 -0.10402902 -0.20741418 0.08795107
0.0808364 0.017241856 0.03991905 -0.024997095 0.04869223 -0.18025373 0.07521504 0.015226013
-0.059362184 -0.15246594 -0.030836064 -0.019690307 0.07917551 0.094015405 0.08458876 -0.1319342
0.060604516 -0.0036409106 -0.11940491 0.03435387 -0.11867321 0.13577598 0.016007075 -0.05389592
0.16133603 -0.028948883 -0.16873021 -0.061020244 0.063176826 -0.07100635 -0.16985835 -0.0141303055
0.11800229 -0.010157958 -0.082195126 0.030227527 -0.020947576 0.01361944 0.07256211 -0.10117303
-0.046720725 0.0723219 0.22414173 -0.21964775 0.10989135 0.032688353 0.007939682 -0.019473476
-0.37016714 0.015730644 0.09894806 0.07060036 0.16043064 -0.0755974 0.14489877 0.061537676
-0.0036389031 -0.10589934 0.1525905 -0.10633401 0.071242206 0.033204783 0.11842044 -0.046822242
-0.06378492 -0.04148981 -0.033748735 0.11170907 -0.18139943 0.0069364207 0.0724955 0.1806257
0.029517114 0.17054929 0.056853037 -0.1685411 0.08754376 0.1325681 0.122742504 0.09815641
0.017244568 0.020072334 -0.2650436 0.07598407 0.046303056 -0.056806117 0.044625565 0.102086246
0.040737063 0.010630884 -0.39916104 0.05155271 0.0531459 0.013013082 0.21938534 0.022693465
-0.12803242 0.0004930262 -0.04771931 0.14024402 -0.19810648 -0.07896926 0.0012474386 -0.157016
0.12947538 -0.23097593 0.090538524 -0.07719578 0.0091064405 0.04726637 -0.2125937 0.3767321
-0.20773846 -0.029036976 0.10867295 0.10935776 0.13932574 0.16256791 0.13232172 -0.042383216

2.bias f4 [128]
00000000: 7004 48bc 6baf 8bbe e18b 52be 5e02 06be
00000010: 8179 883c 386b dc3a dfa4 02be 1ad0 11bd
00000020: a8e7 51be dc39 76be 9be2 46be 72d8 bebd
00000030: 492a f0bd f33b b6bd e9a8 95be 24ab 25be
00000040: f186 17be e1b5 e0b9 a4f7 bebd 66f2 ba3d
00000050: 2639 67be f076 7ebe b6a8 83bd 35e5 1bbd
00000060: ef93 053d 286f d7bd a2f0 c8bd 53d8 553d
00000070: 169c 81bd 8e2e 09be d886 373d 8ea2 a03d
00000080: e8c5 73be 08b0 27be ff05 c33b 16f5 0b3d
00000090: 4e0b c1bd 2c52 cdbd 9c0c 2fbe 2b38 39bd
000000a0: 850b 81be 8704 afbe 81a2 e5bc 9450 61be
000000b0: f8f8 cabd 1005 26bd 4179 edbd 291f 4fbe
000000c0: 5665 d6bd 2fbe 1f3e e61a 41be 1e1d 3fbe
000000d0: 5831 54be 29de 103d b4ca 09be 5848 14be
000000e0: b230 40bd 415e 1bbe bddd 6cbe 20e3 aa3c
000000f0: 7313 4c3c d658 4ebd 1caf 82bd 9f98 0bbe
00000100: 433a b6bd 8421 25be 21b6 39bd 8754 edbd
00000110: e3de 25be ba9e febd dd9c 5bbe 0f36 823d
00000120: 82e0 30be 36a2 863d 4f2a 83be 1352 1abd
00000130: c0f4 85be 64c4 60be 054a 883c 491a 65be
00000140: 215d 09be d47a 2bbd 26ee 9cbe 138f a7bc
00000150: 0971 153c e4ec ac3d a923 85bd 0ad3 2dbe
00000160: bf19 9dbc bcd8 2bbe abb7 633d e783 a13b
00000170: f436 1abe 8ee2 7f3d a0f2 8a3b 5bc5 d8bd
00000180: ac72 20be e35a 55be 293c acbd cf69 eabd
00000190: 8c2c 12be ea95 19bd f255 b3bd a64b a2bd
000001a0: 1590 383c cb7a 29be b23b 23be b5e7 6abe
000001b0: ba1c 34be fb2c e9bd 7173 75be cf9c 26bc
000001c0: 4c71 97bd 30af 37bb c950 0fbb ce0d 67be
000001d0: 26d6 ea3c 527c 80be 27c0 20be 85f3 e4bd
000001e0: 0526 223e 0a1e e2bd 0d96 a13b eda8 fdbd
000001f0: 3bc7 91bd 60c3 7dbe 6445 693d 638b e4bd
-0.012208089 -0.2728227 -0.20561172 -0.1308684 0.0166595 0.0016816622 -0.12758206 -0.03559885
-0.20498526 -0.24045509 -0.1942238 -0.093186274 -0.11726815 -0.08898153 -0.2923043 -0.16178566
-0.1479757 -0.0004286012 -0.093245775 0.09128265 -0.22580394 -0.24850059 -0.064286634 -0.038060386
0.032611784 -0.10519248 -0.09811522 0.052208256 -0.06328599 -0.13396665 0.04480633 0.07843505
-0.23805964 -0.16375744 0.0059516425 0.03416928 -0.09425984 -0.10025439 -0.17094654 -0.04521958
-0.252041 -0.34183142 -0.02803159 -0.22003394 -0.09910768 -0.04053217 -0.11595393 -0.2022673
-0.10468547 0.15599893 -0.18857917 -0.18663451 -0.20721948 0.03536812 -0.13456231 -0.14480722
-0.04692144 -0.15172674 -0.23131461 0.020860255 0.012455809 -0.05037769 -0.06381056 -0.13632439
-0.08897831 -0.16126066 -0.045339707 -0.11588388 -0.16198306 -0.124326184 -0.21446557 0.06357967
-0.17273143 0.06573908 -0.25618216 -0.03767593 -0.26163292 -0.21949917 0.016636858 -0.22373308
-0.13414432 -0.041865185 -0.30650443 -0.020453965 0.009121188 0.08443621 -0.06500942 -0.16975036
-0.019177316 -0.16781896 0.05559508 0.004929054 -0.15060025 0.06247192 0.004240349 -0.105845176
-0.15668744 -0.20835452 -0.08409912 -0.11445963 -0.14274806 -0.037496485 -0.08756627 -0.07924585
0.011264821 -0.16550748 -0.1594074 -0.22939952 -0.17589083 -0.113855325 -0.23969819 -0.010169222
-0.073946565 -0.0028028004 -0.002186822 -0.2256386 0.028666567 -0.2509485 -0.156983 -0.1117926
0.15834816 -0.11040886 0.0049312175 -0.12385736 -0.07118078 -0.24781561 0.05695094 -0.111593984

4.weight f4 [128, 128]
00000000: 4370 04bd 9228 32bc b7bd c33d c93b 28bd
00000010: e694 34bd e30f 84bd 5776 ef3d cb64 3d3d
00000020: 3033 0c3e 359d 543c da0a 38bd 9cef 903d
00000030: 7bd9 2c3d 6da7 d93c 4fe5 ef3d 835d 103d
00000040: 868c 683d 1d1f 2f3e 9c22 783e bb71 203d
00000050: 26a5 3dbe 64e4 8cbd f118 303d 2f5a 9bbd
00000060: c5e7 b03d df2e 6c3e 7d35 e2bc 8cc8 b3bc
00000070: b81e debc 2c41 96bb 8aa0 c5bd bc72 31be
00000080: 4da9 983c dafe 293e 5b9a 943d 45f6 a93d
00000090: b17b c93c ba59 4f3d 5699 ec3d eb21 75bd
000000a0: 8f57 a4bd 478a 213e 7e79 683c e7cb 80bc
000000b0: 6cfb 483d ed2f 15bd b512 5b3a ddd9 b53c
000000c0: 4747 86be b427 e23a 1ba8 bc3d df16 a63a
000000d0: aceb 543e e9ae 203e 6f3c 50bd a639 afbe
000000e0: 98ff 283c b6ac c23c 16ae c73d 451b 76bd
000000f0: a1a7 31be 69de 1f3e dffc a9bb 32ac ec3d
00000100: 9df3 3b3d aeb8 4d3e e303 b13c 9e60 c33d
00000110: 926b 5c3d 6569 26bb 0ffc b83d 8548 983d
00000120: eabe 063d c1b2 9b3d 500b 96bb 7cf8 11bd
00000130: 3088 11bd dd5e 91bd 9193 0f3d eb14 d63b
00000140: 4ab5 013e 7bc1 fcbd d583 043e d010 403d
00000150: 95d3 c5bd 11a1 243e 658f 8bbd e588 f33d
00000160: 23e7 c4bd 8aac aabd b1fb c1bc be40 8cbc
00000170: bc7d ddbc 9f71 86bd bac0 e8bd 84a2 b13d
00000180: f274 4c3e 755d 903d 067d 54bd a335 67be
00000190: 1ec3 533d 8e2e 623d f59f 88bd 4e55 9b3d
000001a0: f8c5 7a3d b11e 6c3d 43ad 4dbe 25bb 413e
000001b0: b346 24bd ddf5 eb3c d287 ae3d 30a7 8cbd
000001c0: 7b71 37bd 666d 1fbe 37ab cbbd 21d3 223e
000001d0: c6b6 3fbe 96b1 e5bc 3328 453d 8e21 b7bd
000001e0: 8681 2cbe 1d26 0d3d a3f7 0e3d bb45 89bd
000001f0: 8c62 693d 3bb9 67bb 2975 50bd 8cfc 39be
00000200: 3338 e73d c4c0 633d 4548 14bd e3e4 5c3c
00000210: 34c6 f93d 301e f2bc 1738 563d 646c 41bd
00000220: 4873 9c3d d658 063d 5b39 8b3c 24b4 2dbe
00000230: f967 193e 594f 46be 312d 583e 5c3c 233d
00000240: 94d0 19be c0fe 923c 75d2 d83d bccb 493d
00000250: 74fc b53d 33ac b53c 81f8 5bbe 0967 eb3c
00000260: 09e9 283d 40f4 86bc 07bb 4e3d c41c afbd
00000270: 7c86 453d 51e3 0abd a6a6 f03d 8d1c b5bb
00000280: 5676 8b3d 20a7 77be b0a9 163d 085f d8bd
00000290: d310 ecbd 1d87 cfbd ddbc ad3d f62a 3dbd
000002a0: 12b8 2f3e 92f7 f53d 76e3 1abd 6750 0b3e
000002b0: 41d0 b83d 6e6b ff3c b5f4 26be bddb 20bd
000002c0: 7447 febd 5d9d 8d3d a413 d23d 1314 bbbb
000002d0: f512 f43c b672 323e 31a2 64bd 7c23 3cbd
000002e0: c839 80bd 1cab 873c ab94 a0bd 7a22 7f3b
000002f0: c51f 8ebd 8d0a 74be 1cf7 e83c 6204 513d
00000300: d6bb b3bb 20b2 f53d 0c6e b63d 6f41 f53d
00000310: eeee 06be 6986 b73d 1baa 08be 3e22 633d
00000320: 510b 4abd f3db 363d af4c 923d 779f d33d
00000330: 2f95 833c 2f57 d43c c18e c3bd 9611 433d
00000340: 467a b33d 2ac2 9cbd 2a09 5e3c 6d4e 36be
00000350: aa17 5bbd fed7 4ebe ec93 353d dfa3 c5bd
00000360: e7dc 1fbc 00b5 453d 0ba0 57be f0cb 44be
00000370: 41e9 ffbc 1ac4 b9bd 8524 b4bd aa08 9dbd
00000380: 2304 cc3c f3cb 023d 9cc7 373d ab24 3cbe
00000390: c28e 773c cfd0 843d 7bfb 5abe 8fbf 3f3e
000003a0: 1e6f c23d 7840 0f3c c03f 773d 6d6e bf3b
000003b0: 80c3 b43d 736f 993d 1204 fe3c fdc6 9e3a
000003c0: dd1c c33d 1ae1 2fbd 053b 6bbd ea61 243c
000003d0: 84bb 47bd b112 0bbe 9f4a 8f3c 769a 13bd
000003e0: 54e1 443d ff78 043e 3c41 153b 3c96 04bd
000003f0: 0e0e d8bd 63a5 dcbc 7e87 b73d f9da 1f3e
-0.032333624 -0.0108739305 0.095576696 -0.04107264 -0.044087313 -0.06448343 0.116924934 0.0462387
0.13691401 0.012976934 -0.044932224 0.07076952 0.042199593 0.026569093 0.11713659 0.03524543
0.05677464 0.17101713 0.24231952 0.03917096 -0.1852003 -0.068794996 0.042992536 -0.075855605
0.086379565 0.23064755 -0.027613396 -0.021946214 -0.027114257 -0.004585406 -0.09649761 -0.17328924
0.018635416 0.16601124 0.072560035 0.08298925 0.024595113 0.05062268 0.11552684 -0.0598468
-0.08024513 0.15775405 0.014189122 -0.015722228 0.0490679 -0.03642266 0.00083569746 0.022198612
-0.26226255 0.0017254264 0.09211751 0.0012671611 0.20793027 0.15691723 -0.050838884 -0.3422367
0.010314845 0.023763996 0.09750001 -0.0600846 -0.17349102 0.15612186 -0.0051876153 0.11556281
0.045886625 0.20089981 0.021608299 0.09539913 0.053813525 -0.002539241 0.09032451 0.07435707
0.032896914 0.07602454 -0.0045789853 -0.035637364 -0.03553027 -0.07098172 0.03505284 0.0065332553
0.12666813 -0.12341591 0.12940915 0.046891034 -0.09659497 0.16077067 -0.0681446 0.11891345
-0.09614398 -0.083336905 -0.023679586 -0.017120715 -0.027037494 -0.0656464 -0.11364885 0.086735755
0.19966486 0.070490755 -0.051877044 -0.22579055 0.05169975 0.05522018 -0.066711344 0.0758463
0.061223954 0.057646457 -0.20085625 0.18919046 -0.040106487 0.02880376 0.085219994 -0.06867826
-0.044785958 -0.15569076 -0.09944766 0.15900852 -0.18722066 -0.028038781 0.04813404 -0.08941947
-0.16846284 0.034460176 0.034904134 -0.06702753 0.056978747 -0.0035358209 -0.050892983 -0.18162745
0.11290016 0.055603758 -0.036201734 0.013482305 0.12196007 -0.02955541 0.052299585 -0.04722251
0.07639176 0.032799564 0.016995123 -0.1696325 0.14981069 -0.19366206 0.21110989 0.039852485
-0.15020972 0.01794374 0.105870165 0.049266562 0.08886042 0.022176838 -0.21481515 0.028735654
0.041237865 -0.01647389 0.050471332 -0.085504085 0.048223957 -0.033908192 0.11750536 -0.005527085
0.0680968 -0.24184847 0.03678292 -0.10565001 -0.115266465 -0.10133193 0.084832884 -0.04618355
0.17160061 0.12010111 -0.03781458 0.1360489 0.09024096 0.031179156 -0.16304286 -0.03927206
-0.12415972 0.0691478 0.102576524 -0.00570918 0.029794196 0.17426571 -0.05581874 -0.045932278
-0.06261021 0.016561083 -0.07840856 0.0038930462 -0.06939653 -0.2383215 0.028438143 0.05102957
-0.0054850383 0.11996865 0.089077085 0.11975371 -0.13177082 0.089611836 -0.1334614 0.055452578
-0.0493272 0.044643354 0.071435325 0.1033315 0.016062347 0.025920479 -0.095487125 0.047624193
0.08763556 -0.07654221 0.01355199 -0.17803355 -0.053489365 -0.20199582 0.044330522 -0.096503966
-0.009757257 0.04826832 -0.21057145 -0.19218421 -0.031239154 -0.090706065 -0.08796028 -0.07667668
0.024904316 0.031932782 0.044868097 -0.18373363 0.01510972 0.064851396 -0.21384995 0.18725418
0.0949385 0.008743398 0.06036353 0.005842021 0.08826351 0.074919604 0.0310078 0.0012113746
0.095269896 -0.042939283 -0.057429332 0.01003311 -0.048762813 -0.13581349 0.017491637 -0.036035977
0.048066452 0.12936781 0.0022774478 -0.032369837 -0.10549556 -0.026934331 0.0896139 0.15610875

4.bias f4 [128]
00000000: 45ed c5bd c276 f4bd 8d44 5cbe c11f 39bc
00000010: 18ff 8dbe a18d 48bd 3d0f f9bd c4d1 0bbe
00000020: 3599 bbbd 960c b83b e987 ecbd af8b 65be
00000030: 2bc3 c5bd 6e2e 0cbd f565 b7bd 023e a93d
00000040: 5920 c5bd 52f3 4fbe d133 6cbd 8a52 32be
00000050: 4d7b 38be edee c1bd 4756 26bc 9558 99bc
00000060: b9e0 53be 2484 f4bd fc23 e0bd 5d2d 0abc
00000070: 2e79 a4bd e545 40be 437b ac3d b3a1 e0bd
00000080: 0b08 c8bd df82 8abd eeb4 f6bd af50 f3bd
00000090: 53b2 573d db98 79bd 8871 f1bd 58a6 53be
000000a0: edb0 8abd f2cb 55bc 3912 aabd 21ee a0bd
000000b0: d332 11be 6af9 ab3d b406 15bd 8cf1 2bbc
000000c0: 2b9a 59be 48f9 81bd 19b9 03be 8685 46be
000000d0: 7af9 343d d1fe 3bbe d0d8 3cbe b682 b9bd
000000e0: fefe 0fbc d8fb 183e 0df8 80be 0ebb 84be
000000f0: 936e c73d 1c6d 613d 5923 993c 5bb4 20bd
00000100: 1b12 6cbd fb83 edbd d715 24be 4a52 3fbe
00000110: ec73 47be cc05 e1bc 9de2 4bbe 7d15 42be
00000120: 87b5 ef3c e339 3bbe 23f3 fabd 8898 1dbe
00000130: 7654 793c c015 22be f8ef d73c b14f 4a3c
00000140: 3816 10be f2a7 d9bd b914 3abe b829 32bd
00000150: 4df4 8bbd f238 62be f9be 6e3d a899 b4bd
00000160: 91d3 61bd 309f 9dbe 97d6 25bd 2087 e93c
00000170: 634d eabd 1e80 13bc 893b 4ebe fdfd 86bd
00000180: a2cc bfbd 1d9d acbd fef4 a7bc ce1c 3cbe
00000190: c55e 00bd 5618 c2bd f536 41be dc4e 14bc
000001a0: 4823 b43b e4e7 e5bd fe00 27be 0651 40be
000001b0: 8f19 46be 3b81 aabd aee5 21be 528c 00bd
000001c0: 0e27 f7bd 70f9 cebd 45c9 bd3d 09b2 5fbe
000001d0: 1931 34bc 05dd 69be 0ce7 76be 1824 06be
000001e0: 44ba 18bd ae2b 3abc 6c4a 4cbe bf4e e1bd
000001f0: 6df4 82bd 4011 4abe 5913 0fbe be79 41bd
-0.09664396 -0.11936714 -0.21510525 -0.011299075 -0.27733684 -0.048963193 -0.121611096 -0.13654238
-0.09160081 0.0056167347 -0.1154936 -0.22416566 -0.09656366 -0.034223966 -0.08954994 0.0826378
-0.096253105 -0.20307663 -0.057666603 -0.17414299 -0.18015786 -0.094693996 -0.010152406 -0.018718997
-0.20691194 -0.11939266 -0.109443635 -0.008433667 -0.08030926 -0.18776663 0.08421948 -0.10968342
-0.09767159 -0.06763243 -0.12046228 -0.118806235 0.052660298 -0.06093679 -0.117892325 -0.20668924
-0.06772027 -0.013049113 -0.08304257 -0.078579195 -0.14179544 0.08397181 -0.036383346 -0.010494601
-0.21250217 -0.06346375 -0.12863578 -0.19386873 0.044183232 -0.18358923 -0.18442082 -0.09058134
-0.008788822 0.14939821 -0.25189248 -0.2592396 0.09737887 0.055035695 0.018693613 -0.0392345
-0.057634454 -0.11597439 -0.16023956 -0.18683735 -0.19477814 -0.027468584 -0.19910665 -0.1895351
0.029261364 -0.18283801 -0.12253406 -0.15390217 0.015217891 -0.1582861 0.026359543 0.0123481015
-0.14070976 -0.10627736 -0.18171968 -0.043496817 -0.06833706 -0.22092035 0.058287594 -0.0881837
-0.055133406 -0.30785513 -0.040487852 0.028506815 -0.114405416 -0.0090027135 -0.20139898 -0.06591413
-0.093652025 -0.084284045 -0.020502564 -0.18370363 -0.03134038 -0.09477298 -0.1886862 -0.009052005
0.00549737 -0.1122587 -0.16308972 -0.18780908 -0.19345687 -0.0832543 -0.15810272 -0.03138382
-0.12067996 -0.1010617 0.09266905 -0.21845259 -0.010998034 -0.22838219 -0.24111575 -0.13099706
-0.03728701 -0.011362953 -0.19950265 -0.11001348 -0.06394277 -0.19733143 -0.13972224 -0.047235243

6.weight f4 [12, 128]
00000000: 85f1 683c d1b8 8cbb ba69 f6bb 369a 4bbd
00000010: 466c ac3c b113 443d 3220 c3bc 95ae 323c
00000020: c7d1 923d 520a d23c c192 14bc bb57 083d
00000030: fc6e c53c c338 d13c 878d b2bc e3c5 77bd
00000040: 8956 cbbc 6bc2 0b3d f000 08bd b17e f83b
00000050: 17b7 a6bc 8b93 6abc f60f 1f3c 038f 0cbc
00000060: ab80 9c3c 5df9 283d 02d8 823d e8d0 81bc
00000070: 5ddb 15bd 40fe f73a 9111 efbd 0b15 193d
00000080: 121f f4bd 621e dd3c cfac dc3c 3287 923c
00000090: 673c 38bd c38d acbd 02a9 bf3d 8d41 d53a
000000a0: 0bca 5c3d 9619 b73d 17fb 393d 9efe 623d
000000b0: 2984 013d 3661 7bbc 08da 13bd 4e92 1f3d
000000c0: 0cd5 92bb 4180 6dbd 800b 333b d4be 633d
000000d0: 9886 e2bc 6709 013e 4a1f c63a 4b88 1fba
000000e0: d3fc d63c 33b7 57bc 4c52 dd3d 3805 38bd
000000f0: 658e 9d3a 103f eeba a70f 28bd 63e0 9cbb
00000100: 2465 22bd 4681 44bc bc81 883d 2906 693d
00000110: 3ac5 ee3d d9ee 3c3b 47b6 7abd 4663 983c
00000120: 4c4e 0fbd 699c d3bc 7f67 2f3d 9d12 333b
00000130: be17 0e3d 46d1 e7bc 075e 4d3c ffda 3c3c
00000140: cc8c 20bd e3c6 4d3d 58c1 96bc a7a6 da3b
00000150: 0f05 01bd 5a02 acbc 3de0 943d 651f eeba
00000160: b1d5 a03c 0ddf e93c e77f 90bd a36c 01bc
00000170: c7bc ae3c 18cf 353c 15ef febb dac2 043c
00000180: 4085 ec3b 43dc 81bc 1bf1 2d3d 930b 3f3d
00000190: febe 203c 5865 ddbc 13a9 d0bc f13a fc3b
000001a0: 4821 cf3b 7148 523d f612 423d c778 68bb
000001b0: 9432 463c 3ff0 51bd a1ff bfbc e286 69bc
000001c0: 6222 79bd e242 72bd d522 be3c a551 703d
000001d0: f2b5 ee3c 79c8 5e3c dd8f 693d cdce 67bd
000001e0: c005 6cbc d40e 7e3d 224b 3d3c 0eb9 9c3c
000001f0: 0ec0 9d3c e819 ffbc d5f8 92bb 77bc 84bd
00000200: b109 263d 9a55 923c 8ea9 563d 0fd7 2ebd
00000210: 9076 473d 5fad 10bb b4ca 91bc 43ce 583d
00000220: 9adb 023c adc7 993b 3838 bd3d 714a ca3a
00000230: a9a2 ed3b b6e2 c83c e690 98bc 5fda 983a
00000240: dfac 32bb 1fde 08bc 1d71 7cbc 2a82 5aba
00000250: c2d5 e4bb ba7b 123e d358 e4bc 9f8a 43bd
00000260: 560e 4bbc 956f 5d3d 6d5b 51bc a1e5 0f3b
00000270: 0c7b 16bc b411 b0bd 4f8b 633d 6a0b 0abd
00000280: ef37 6ebc 473e 27bd f7a3 9f3c 3f38 d03a
00000290: 45a2 7b3c f20d 063e 68f4 b03b 10d5 90bd
000002a0: 921a 6c3d cc60 84bd a20e d83c ef0b 053d
000002b0: d37e 90bd e402 0bbd 205e 9bbb b60c 3cbc
000002c0: 5630 bcbb 4d0d 45bd abe7 8abc 0e83 c1bd
000002d0: 1b4c b03d 36b0 81bc 8a59 72bd d4de ad3b
000002e0: bceb afbc dd2a 3abc ac88 d5bc 7a3d aabd
000002f0: 5657 353d cb4e 663c 5c08 09bc 56a6 f6bb
00000300: 6b2d f1ba 2558 d3bb 17b1 2cbc 8061 de3c
00000310: 85b2 6fbd 78c9 373c 17f2 3d3d d3a0 94bb
00000320: 13c2 55bc 1542 3d3d c1f0 d2bd ea9a 723a
00000330: 0998 25bd 75ed 84bd e6e6 07be 5dd7 2dbc
00000340: 4201 ed3c 5217 35bd 1560 533a 25a9 2c3d
00000350: 7e5b a43d 8a54 7e3d 69a7 b23c edcb d4bc
00000360: d0ed a1ba d47d 2e3b b9dc 863d 0089 4bbc
00000370: 2ab0 a03b d55a 72bd 02ea 0bbd 0302 31bd
00000380: d0c9 95bd be0f 08bd c644 acbd 49ce a73c
00000390: 0b8d 32bc 19bb 3f3d 7368 073d 23ea 503d
000003a0: ebc0 22bd f23a 9dbd 8532 b83c ee3e aabc
000003b0: d8b9 3d3a 092a 93bc 1467 833c a931 0ebd
000003c0: a312 2d3d 6f85 6aba 455f dc3c 25f2 4abd
000003d0: e849 89bc 1342 7e3d 40ad 36bd 3bca 263c
000003e0: 4738 35bd 48bb ac3b ac24 063d 10c9 72bd
000003f0: 3d7f bdbb c8cd 8f3d 42a0 bebc 23dc f4bc
0.014217739 -0.004294493 -0.007519928 -0.049707614 0.021047723 0.04787034 -0.023819063 0.010905881
0.07168918 0.025639687 -0.009068192 0.03328679 0.024100773 0.025539761 -0.021796001 -0.060491454
-0.024821537 0.03412096 -0.03320402 0.007583462 -0.020350976 -0.014317404 0.009708395 -0.0085790185
0.019104322 0.041253436 0.063888565 -0.015846685 -0.036586154 0.0018920377 -0.116732724 0.037373584
-0.11919989 0.026992027 0.02693787 0.017886732 -0.04497948 -0.084254764 0.093584076 0.0016270146
0.05390362 0.08940427 0.045405474 0.055418603 0.03162018 -0.015343001 -0.036096603 0.038957886
-0.0044809636 -0.05798364 0.0027320087 0.05560191 -0.02765207 0.12601243 0.0015115526 -0.0006085678
0.026243603 -0.013166237 0.108067125 -0.044926852 0.0012020586 -0.0018176753 -0.041030552 -0.004787491
-0.039647236 -0.011993712 0.0666537 0.05689064 0.11658712 0.0028828888 -0.06120899 0.018602025
-0.03498678 -0.025831418 0.04282331 0.0027324327 0.03469061 -0.028298032 0.012534625 0.011526822
-0.039196774 0.0502385 -0.01840274 0.0066726985 -0.031498965 -0.020997215 0.072693326 -0.0018167315
0.019633146 0.028548742 -0.070556454 -0.007899436 0.02133025 0.011096738 -0.0077799656 0.008103097
0.007218033 -0.0158521 0.042466264 0.046641897 0.009811161 -0.027025864 -0.025471246 0.007697456
0.006321106 0.051338617 0.047381364 -0.003547238 0.01209702 -0.051254507 -0.023437323 -0.01425335
-0.060823806 -0.059145816 0.023209969 0.058671612 0.029139493 0.013597601 0.057021964 -0.056593705
-0.014405668 0.06202586 0.011553558 0.01913121 0.019256618 -0.031140283 -0.0044852295 -0.06481259
0.040536586 0.017863084 0.052407794 -0.042685565 0.048697054 -0.0022075993 -0.017796852 0.05293108
0.007986927 0.0046929927 0.092392385 0.0015433562 0.0072520566 0.024522167 -0.01862378 0.0011661759
-0.0027263684 -0.008353739 -0.015407828 -0.0008335436 -0.0069834897 0.1430501 -0.027874386 -0.04773962
-0.012393555 0.05406149 -0.012778145 0.0021956938 -0.00918461 -0.085971266 0.055552777 -0.03370229
-0.014539703 -0.040830877 0.019487364 0.0015885903 0.015358512 0.13091257 0.0054002292 -0.070718884
0.057642527 -0.06463775 0.026374165 0.032482084 -0.0705544 -0.033938304 -0.004741445 -0.01147764
-0.005743067 -0.048108388 -0.016956171 -0.09448825 0.08608266 -0.015831094 -0.059167422 0.005306104
-0.021474712 -0.011362758 -0.026066147 -0.08312507 0.044272743 0.014056872 -0.008363809 -0.007527153
-0.0018400376 -0.0064497166 -0.010540268 0.027146101 -0.05851986 0.0112174675 0.046373453 -0.0045357733
-0.013046759 0.0462056 -0.102998264 0.00092546514 -0.040428195 -0.06490604 -0.13271675 -0.010610429
0.028931264 -0.044211693 0.00080633286 0.042153496 0.08025263 0.06209234 0.021808343 -0.025976146
-0.0012354199 0.0026625292 0.06585068 -0.0124228 0.004903813 -0.059168655 -0.034158714 -0.04321481
-0.07313883 -0.033218138 -0.08411555 0.020484107 -0.010897885 0.04680929 0.033058595 0.05100454
-0.039734762 -0.076772586 0.022485027 -0.02078196 0.00072374707 -0.01796438 0.016040362 -0.03471533
0.0422541 -0.0008946275 0.026900897 -0.049547333 -0.016758874 0.062074732 -0.044598818 0.010180051
-0.044243123 0.005271349 0.032749817 -0.05927378 -0.0057829903 0.070216715 -0.023269776 -0.029890126

6.bias f4 [12]
00000000: fe2d 833c 2bca 94bd 077c 943d 1cbd 1abc
00000010: 85f6 1dbe cd02 68bd ae86 ab3d dc70 763d
00000020: 03e0 7e3d 12e0 50bd 30cb 303e da93 053e
0.016013142 -0.07265123 0.07250219 -0.009444501 -0.15426071 -0.056643296 0.083752975 0.060166225
0.062225353 -0.05099494 0.1726501 0.13044682
